node {
  name: "input_1"
  op: "Placeholder"
  attr {
    key: "dtype"
    value {
      type: DT_FLOAT
    }
  }
  attr {
    key: "shape"
    value {
      shape {
        dim {
          size: -1
        }
        dim {
          size: -1
        }
        dim {
          size: -1
        }
        dim {
          size: 3
        }
      }
    }
  }
}
node {
  name: "conv2d_1/random_uniform/shape"
  op: "Const"
  attr {
    key: "dtype"
    value {
      type: DT_INT32
    }
  }
  attr {
    key: "value"
    value {
      tensor {
        dtype: DT_INT32
        tensor_shape {
          dim {
            size: 4
          }
        }
        tensor_content: "\003\000\000\000\003\000\000\000\003\000\000\000 \000\000\000"
      }
    }
  }
}
node {
  name: "conv2d_1/random_uniform/min"
  op: "Const"
  attr {
    key: "dtype"
    value {
      type: DT_FLOAT
    }
  }
  attr {
    key: "value"
    value {
      tensor {
        dtype: DT_FLOAT
        tensor_shape {
        }
        float_val: -0.1380131095647812
      }
    }
  }
}
node {
  name: "conv2d_1/random_uniform/max"
  op: "Const"
  attr {
    key: "dtype"
    value {
      type: DT_FLOAT
    }
  }
  attr {
    key: "value"
    value {
      tensor {
        dtype: DT_FLOAT
        tensor_shape {
        }
        float_val: 0.1380131095647812
      }
    }
  }
}
node {
  name: "conv2d_1/random_uniform/RandomUniform"
  op: "RandomUniform"
  input: "conv2d_1/random_uniform/shape"
  attr {
    key: "T"
    value {
      type: DT_INT32
    }
  }
  attr {
    key: "dtype"
    value {
      type: DT_FLOAT
    }
  }
  attr {
    key: "seed"
    value {
      i: 87654321
    }
  }
  attr {
    key: "seed2"
    value {
      i: 5579858
    }
  }
}
node {
  name: "conv2d_1/random_uniform/sub"
  op: "Sub"
  input: "conv2d_1/random_uniform/max"
  input: "conv2d_1/random_uniform/min"
  attr {
    key: "T"
    value {
      type: DT_FLOAT
    }
  }
}
node {
  name: "conv2d_1/random_uniform/mul"
  op: "Mul"
  input: "conv2d_1/random_uniform/RandomUniform"
  input: "conv2d_1/random_uniform/sub"
  attr {
    key: "T"
    value {
      type: DT_FLOAT
    }
  }
}
node {
  name: "conv2d_1/random_uniform"
  op: "Add"
  input: "conv2d_1/random_uniform/mul"
  input: "conv2d_1/random_uniform/min"
  attr {
    key: "T"
    value {
      type: DT_FLOAT
    }
  }
}
node {
  name: "conv2d_1/kernel"
  op: "VariableV2"
  attr {
    key: "container"
    value {
      s: ""
    }
  }
  attr {
    key: "dtype"
    value {
      type: DT_FLOAT
    }
  }
  attr {
    key: "shape"
    value {
      shape {
        dim {
          size: 3
        }
        dim {
          size: 3
        }
        dim {
          size: 3
        }
        dim {
          size: 32
        }
      }
    }
  }
  attr {
    key: "shared_name"
    value {
      s: ""
    }
  }
}
node {
  name: "conv2d_1/kernel/Assign"
  op: "Assign"
  input: "conv2d_1/kernel"
  input: "conv2d_1/random_uniform"
  attr {
    key: "T"
    value {
      type: DT_FLOAT
    }
  }
  attr {
    key: "_class"
    value {
      list {
        s: "loc:@conv2d_1/kernel"
      }
    }
  }
  attr {
    key: "use_locking"
    value {
      b: true
    }
  }
  attr {
    key: "validate_shape"
    value {
      b: true
    }
  }
}
node {
  name: "conv2d_1/kernel/read"
  op: "Identity"
  input: "conv2d_1/kernel"
  attr {
    key: "T"
    value {
      type: DT_FLOAT
    }
  }
  attr {
    key: "_class"
    value {
      list {
        s: "loc:@conv2d_1/kernel"
      }
    }
  }
}
node {
  name: "conv2d_1/weight_regularizer/Square"
  op: "Square"
  input: "conv2d_1/kernel/read"
  attr {
    key: "T"
    value {
      type: DT_FLOAT
    }
  }
}
node {
  name: "conv2d_1/weight_regularizer/mul/x"
  op: "Const"
  attr {
    key: "dtype"
    value {
      type: DT_FLOAT
    }
  }
  attr {
    key: "value"
    value {
      tensor {
        dtype: DT_FLOAT
        tensor_shape {
        }
        float_val: 0.0005000000237487257
      }
    }
  }
}
node {
  name: "conv2d_1/weight_regularizer/mul"
  op: "Mul"
  input: "conv2d_1/weight_regularizer/mul/x"
  input: "conv2d_1/weight_regularizer/Square"
  attr {
    key: "T"
    value {
      type: DT_FLOAT
    }
  }
}
node {
  name: "conv2d_1/weight_regularizer/Const"
  op: "Const"
  attr {
    key: "dtype"
    value {
      type: DT_INT32
    }
  }
  attr {
    key: "value"
    value {
      tensor {
        dtype: DT_INT32
        tensor_shape {
          dim {
            size: 4
          }
        }
        tensor_content: "\000\000\000\000\001\000\000\000\002\000\000\000\003\000\000\000"
      }
    }
  }
}
node {
  name: "conv2d_1/weight_regularizer/Sum"
  op: "Sum"
  input: "conv2d_1/weight_regularizer/mul"
  input: "conv2d_1/weight_regularizer/Const"
  attr {
    key: "T"
    value {
      type: DT_FLOAT
    }
  }
  attr {
    key: "Tidx"
    value {
      type: DT_INT32
    }
  }
  attr {
    key: "keep_dims"
    value {
      b: false
    }
  }
}
node {
  name: "conv2d_1/weight_regularizer/add/x"
  op: "Const"
  attr {
    key: "dtype"
    value {
      type: DT_FLOAT
    }
  }
  attr {
    key: "value"
    value {
      tensor {
        dtype: DT_FLOAT
        tensor_shape {
        }
        float_val: 0.0
      }
    }
  }
}
node {
  name: "conv2d_1/weight_regularizer/add"
  op: "Add"
  input: "conv2d_1/weight_regularizer/add/x"
  input: "conv2d_1/weight_regularizer/Sum"
  attr {
    key: "T"
    value {
      type: DT_FLOAT
    }
  }
}
node {
  name: "conv2d_1/convolution/dilation_rate"
  op: "Const"
  attr {
    key: "dtype"
    value {
      type: DT_INT32
    }
  }
  attr {
    key: "value"
    value {
      tensor {
        dtype: DT_INT32
        tensor_shape {
          dim {
            size: 2
          }
        }
        tensor_content: "\001\000\000\000\001\000\000\000"
      }
    }
  }
}
node {
  name: "conv2d_1/convolution"
  op: "Conv2D"
  input: "input_1"
  input: "conv2d_1/kernel/read"
  attr {
    key: "T"
    value {
      type: DT_FLOAT
    }
  }
  attr {
    key: "data_format"
    value {
      s: "NHWC"
    }
  }
  attr {
    key: "dilations"
    value {
      list {
        i: 1
        i: 1
        i: 1
        i: 1
      }
    }
  }
  attr {
    key: "padding"
    value {
      s: "SAME"
    }
  }
  attr {
    key: "strides"
    value {
      list {
        i: 1
        i: 1
        i: 1
        i: 1
      }
    }
  }
  attr {
    key: "use_cudnn_on_gpu"
    value {
      b: true
    }
  }
}
node {
  name: "batch_normalization_1/Const"
  op: "Const"
  attr {
    key: "dtype"
    value {
      type: DT_FLOAT
    }
  }
  attr {
    key: "value"
    value {
      tensor {
        dtype: DT_FLOAT
        tensor_shape {
          dim {
            size: 32
          }
        }
        float_val: 1.0
      }
    }
  }
}
node {
  name: "batch_normalization_1/gamma"
  op: "VariableV2"
  attr {
    key: "container"
    value {
      s: ""
    }
  }
  attr {
    key: "dtype"
    value {
      type: DT_FLOAT
    }
  }
  attr {
    key: "shape"
    value {
      shape {
        dim {
          size: 32
        }
      }
    }
  }
  attr {
    key: "shared_name"
    value {
      s: ""
    }
  }
}
node {
  name: "batch_normalization_1/gamma/Assign"
  op: "Assign"
  input: "batch_normalization_1/gamma"
  input: "batch_normalization_1/Const"
  attr {
    key: "T"
    value {
      type: DT_FLOAT
    }
  }
  attr {
    key: "_class"
    value {
      list {
        s: "loc:@batch_normalization_1/gamma"
      }
    }
  }
  attr {
    key: "use_locking"
    value {
      b: true
    }
  }
  attr {
    key: "validate_shape"
    value {
      b: true
    }
  }
}
node {
  name: "batch_normalization_1/gamma/read"
  op: "Identity"
  input: "batch_normalization_1/gamma"
  attr {
    key: "T"
    value {
      type: DT_FLOAT
    }
  }
  attr {
    key: "_class"
    value {
      list {
        s: "loc:@batch_normalization_1/gamma"
      }
    }
  }
}
node {
  name: "batch_normalization_1/Const_1"
  op: "Const"
  attr {
    key: "dtype"
    value {
      type: DT_FLOAT
    }
  }
  attr {
    key: "value"
    value {
      tensor {
        dtype: DT_FLOAT
        tensor_shape {
          dim {
            size: 32
          }
        }
        float_val: 0.0
      }
    }
  }
}
node {
  name: "batch_normalization_1/beta"
  op: "VariableV2"
  attr {
    key: "container"
    value {
      s: ""
    }
  }
  attr {
    key: "dtype"
    value {
      type: DT_FLOAT
    }
  }
  attr {
    key: "shape"
    value {
      shape {
        dim {
          size: 32
        }
      }
    }
  }
  attr {
    key: "shared_name"
    value {
      s: ""
    }
  }
}
node {
  name: "batch_normalization_1/beta/Assign"
  op: "Assign"
  input: "batch_normalization_1/beta"
  input: "batch_normalization_1/Const_1"
  attr {
    key: "T"
    value {
      type: DT_FLOAT
    }
  }
  attr {
    key: "_class"
    value {
      list {
        s: "loc:@batch_normalization_1/beta"
      }
    }
  }
  attr {
    key: "use_locking"
    value {
      b: true
    }
  }
  attr {
    key: "validate_shape"
    value {
      b: true
    }
  }
}
node {
  name: "batch_normalization_1/beta/read"
  op: "Identity"
  input: "batch_normalization_1/beta"
  attr {
    key: "T"
    value {
      type: DT_FLOAT
    }
  }
  attr {
    key: "_class"
    value {
      list {
        s: "loc:@batch_normalization_1/beta"
      }
    }
  }
}
node {
  name: "batch_normalization_1/Const_2"
  op: "Const"
  attr {
    key: "dtype"
    value {
      type: DT_FLOAT
    }
  }
  attr {
    key: "value"
    value {
      tensor {
        dtype: DT_FLOAT
        tensor_shape {
          dim {
            size: 32
          }
        }
        float_val: 0.0
      }
    }
  }
}
node {
  name: "batch_normalization_1/moving_mean"
  op: "VariableV2"
  attr {
    key: "container"
    value {
      s: ""
    }
  }
  attr {
    key: "dtype"
    value {
      type: DT_FLOAT
    }
  }
  attr {
    key: "shape"
    value {
      shape {
        dim {
          size: 32
        }
      }
    }
  }
  attr {
    key: "shared_name"
    value {
      s: ""
    }
  }
}
node {
  name: "batch_normalization_1/moving_mean/Assign"
  op: "Assign"
  input: "batch_normalization_1/moving_mean"
  input: "batch_normalization_1/Const_2"
  attr {
    key: "T"
    value {
      type: DT_FLOAT
    }
  }
  attr {
    key: "_class"
    value {
      list {
        s: "loc:@batch_normalization_1/moving_mean"
      }
    }
  }
  attr {
    key: "use_locking"
    value {
      b: true
    }
  }
  attr {
    key: "validate_shape"
    value {
      b: true
    }
  }
}
node {
  name: "batch_normalization_1/moving_mean/read"
  op: "Identity"
  input: "batch_normalization_1/moving_mean"
  attr {
    key: "T"
    value {
      type: DT_FLOAT
    }
  }
  attr {
    key: "_class"
    value {
      list {
        s: "loc:@batch_normalization_1/moving_mean"
      }
    }
  }
}
node {
  name: "batch_normalization_1/Const_3"
  op: "Const"
  attr {
    key: "dtype"
    value {
      type: DT_FLOAT
    }
  }
  attr {
    key: "value"
    value {
      tensor {
        dtype: DT_FLOAT
        tensor_shape {
          dim {
            size: 32
          }
        }
        float_val: 1.0
      }
    }
  }
}
node {
  name: "batch_normalization_1/moving_variance"
  op: "VariableV2"
  attr {
    key: "container"
    value {
      s: ""
    }
  }
  attr {
    key: "dtype"
    value {
      type: DT_FLOAT
    }
  }
  attr {
    key: "shape"
    value {
      shape {
        dim {
          size: 32
        }
      }
    }
  }
  attr {
    key: "shared_name"
    value {
      s: ""
    }
  }
}
node {
  name: "batch_normalization_1/moving_variance/Assign"
  op: "Assign"
  input: "batch_normalization_1/moving_variance"
  input: "batch_normalization_1/Const_3"
  attr {
    key: "T"
    value {
      type: DT_FLOAT
    }
  }
  attr {
    key: "_class"
    value {
      list {
        s: "loc:@batch_normalization_1/moving_variance"
      }
    }
  }
  attr {
    key: "use_locking"
    value {
      b: true
    }
  }
  attr {
    key: "validate_shape"
    value {
      b: true
    }
  }
}
node {
  name: "batch_normalization_1/moving_variance/read"
  op: "Identity"
  input: "batch_normalization_1/moving_variance"
  attr {
    key: "T"
    value {
      type: DT_FLOAT
    }
  }
  attr {
    key: "_class"
    value {
      list {
        s: "loc:@batch_normalization_1/moving_variance"
      }
    }
  }
}
node {
  name: "batch_normalization_1/IsVariableInitialized"
  op: "IsVariableInitialized"
  input: "conv2d_1/kernel"
  attr {
    key: "_class"
    value {
      list {
        s: "loc:@conv2d_1/kernel"
      }
    }
  }
  attr {
    key: "dtype"
    value {
      type: DT_FLOAT
    }
  }
}
node {
  name: "batch_normalization_1/IsVariableInitialized_1"
  op: "IsVariableInitialized"
  input: "batch_normalization_1/gamma"
  attr {
    key: "_class"
    value {
      list {
        s: "loc:@batch_normalization_1/gamma"
      }
    }
  }
  attr {
    key: "dtype"
    value {
      type: DT_FLOAT
    }
  }
}
node {
  name: "batch_normalization_1/IsVariableInitialized_2"
  op: "IsVariableInitialized"
  input: "batch_normalization_1/beta"
  attr {
    key: "_class"
    value {
      list {
        s: "loc:@batch_normalization_1/beta"
      }
    }
  }
  attr {
    key: "dtype"
    value {
      type: DT_FLOAT
    }
  }
}
node {
  name: "batch_normalization_1/IsVariableInitialized_3"
  op: "IsVariableInitialized"
  input: "batch_normalization_1/moving_mean"
  attr {
    key: "_class"
    value {
      list {
        s: "loc:@batch_normalization_1/moving_mean"
      }
    }
  }
  attr {
    key: "dtype"
    value {
      type: DT_FLOAT
    }
  }
}
node {
  name: "batch_normalization_1/IsVariableInitialized_4"
  op: "IsVariableInitialized"
  input: "batch_normalization_1/moving_variance"
  attr {
    key: "_class"
    value {
      list {
        s: "loc:@batch_normalization_1/moving_variance"
      }
    }
  }
  attr {
    key: "dtype"
    value {
      type: DT_FLOAT
    }
  }
}
node {
  name: "batch_normalization_1/init"
  op: "NoOp"
  input: "^batch_normalization_1/beta/Assign"
  input: "^batch_normalization_1/gamma/Assign"
  input: "^batch_normalization_1/moving_mean/Assign"
  input: "^batch_normalization_1/moving_variance/Assign"
  input: "^conv2d_1/kernel/Assign"
}
node {
  name: "batch_normalization_1/Const_4"
  op: "Const"
  attr {
    key: "dtype"
    value {
      type: DT_FLOAT
    }
  }
  attr {
    key: "value"
    value {
      tensor {
        dtype: DT_FLOAT
        tensor_shape {
          dim {
          }
        }
      }
    }
  }
}
node {
  name: "batch_normalization_1/Const_5"
  op: "Const"
  attr {
    key: "dtype"
    value {
      type: DT_FLOAT
    }
  }
  attr {
    key: "value"
    value {
      tensor {
        dtype: DT_FLOAT
        tensor_shape {
          dim {
          }
        }
      }
    }
  }
}
node {
  name: "batch_normalization_1/FusedBatchNorm"
  op: "FusedBatchNorm"
  input: "conv2d_1/convolution"
  input: "batch_normalization_1/gamma/read"
  input: "batch_normalization_1/beta/read"
  input: "batch_normalization_1/Const_4"
  input: "batch_normalization_1/Const_5"
  attr {
    key: "T"
    value {
      type: DT_FLOAT
    }
  }
  attr {
    key: "data_format"
    value {
      s: "NHWC"
    }
  }
  attr {
    key: "epsilon"
    value {
      f: 0.0010000000474974513
    }
  }
  attr {
    key: "is_training"
    value {
      b: true
    }
  }
}
node {
  name: "batch_normalization_1/Shape"
  op: "Shape"
  input: "conv2d_1/convolution"
  attr {
    key: "T"
    value {
      type: DT_FLOAT
    }
  }
  attr {
    key: "out_type"
    value {
      type: DT_INT32
    }
  }
}
node {
  name: "batch_normalization_1/strided_slice/stack"
  op: "Const"
  attr {
    key: "dtype"
    value {
      type: DT_INT32
    }
  }
  attr {
    key: "value"
    value {
      tensor {
        dtype: DT_INT32
        tensor_shape {
          dim {
            size: 1
          }
        }
        int_val: 0
      }
    }
  }
}
node {
  name: "batch_normalization_1/strided_slice/stack_1"
  op: "Const"
  attr {
    key: "dtype"
    value {
      type: DT_INT32
    }
  }
  attr {
    key: "value"
    value {
      tensor {
        dtype: DT_INT32
        tensor_shape {
          dim {
            size: 1
          }
        }
        int_val: 1
      }
    }
  }
}
node {
  name: "batch_normalization_1/strided_slice/stack_2"
  op: "Const"
  attr {
    key: "dtype"
    value {
      type: DT_INT32
    }
  }
  attr {
    key: "value"
    value {
      tensor {
        dtype: DT_INT32
        tensor_shape {
          dim {
            size: 1
          }
        }
        int_val: 1
      }
    }
  }
}
node {
  name: "batch_normalization_1/strided_slice"
  op: "StridedSlice"
  input: "batch_normalization_1/Shape"
  input: "batch_normalization_1/strided_slice/stack"
  input: "batch_normalization_1/strided_slice/stack_1"
  input: "batch_normalization_1/strided_slice/stack_2"
  attr {
    key: "Index"
    value {
      type: DT_INT32
    }
  }
  attr {
    key: "T"
    value {
      type: DT_INT32
    }
  }
  attr {
    key: "begin_mask"
    value {
      i: 0
    }
  }
  attr {
    key: "ellipsis_mask"
    value {
      i: 0
    }
  }
  attr {
    key: "end_mask"
    value {
      i: 0
    }
  }
  attr {
    key: "new_axis_mask"
    value {
      i: 0
    }
  }
  attr {
    key: "shrink_axis_mask"
    value {
      i: 1
    }
  }
}
node {
  name: "batch_normalization_1/Shape_1"
  op: "Shape"
  input: "conv2d_1/convolution"
  attr {
    key: "T"
    value {
      type: DT_FLOAT
    }
  }
  attr {
    key: "out_type"
    value {
      type: DT_INT32
    }
  }
}
node {
  name: "batch_normalization_1/strided_slice_1/stack"
  op: "Const"
  attr {
    key: "dtype"
    value {
      type: DT_INT32
    }
  }
  attr {
    key: "value"
    value {
      tensor {
        dtype: DT_INT32
        tensor_shape {
          dim {
            size: 1
          }
        }
        int_val: 1
      }
    }
  }
}
node {
  name: "batch_normalization_1/strided_slice_1/stack_1"
  op: "Const"
  attr {
    key: "dtype"
    value {
      type: DT_INT32
    }
  }
  attr {
    key: "value"
    value {
      tensor {
        dtype: DT_INT32
        tensor_shape {
          dim {
            size: 1
          }
        }
        int_val: 2
      }
    }
  }
}
node {
  name: "batch_normalization_1/strided_slice_1/stack_2"
  op: "Const"
  attr {
    key: "dtype"
    value {
      type: DT_INT32
    }
  }
  attr {
    key: "value"
    value {
      tensor {
        dtype: DT_INT32
        tensor_shape {
          dim {
            size: 1
          }
        }
        int_val: 1
      }
    }
  }
}
node {
  name: "batch_normalization_1/strided_slice_1"
  op: "StridedSlice"
  input: "batch_normalization_1/Shape_1"
  input: "batch_normalization_1/strided_slice_1/stack"
  input: "batch_normalization_1/strided_slice_1/stack_1"
  input: "batch_normalization_1/strided_slice_1/stack_2"
  attr {
    key: "Index"
    value {
      type: DT_INT32
    }
  }
  attr {
    key: "T"
    value {
      type: DT_INT32
    }
  }
  attr {
    key: "begin_mask"
    value {
      i: 0
    }
  }
  attr {
    key: "ellipsis_mask"
    value {
      i: 0
    }
  }
  attr {
    key: "end_mask"
    value {
      i: 0
    }
  }
  attr {
    key: "new_axis_mask"
    value {
      i: 0
    }
  }
  attr {
    key: "shrink_axis_mask"
    value {
      i: 1
    }
  }
}
node {
  name: "batch_normalization_1/Shape_2"
  op: "Shape"
  input: "conv2d_1/convolution"
  attr {
    key: "T"
    value {
      type: DT_FLOAT
    }
  }
  attr {
    key: "out_type"
    value {
      type: DT_INT32
    }
  }
}
node {
  name: "batch_normalization_1/strided_slice_2/stack"
  op: "Const"
  attr {
    key: "dtype"
    value {
      type: DT_INT32
    }
  }
  attr {
    key: "value"
    value {
      tensor {
        dtype: DT_INT32
        tensor_shape {
          dim {
            size: 1
          }
        }
        int_val: 2
      }
    }
  }
}
node {
  name: "batch_normalization_1/strided_slice_2/stack_1"
  op: "Const"
  attr {
    key: "dtype"
    value {
      type: DT_INT32
    }
  }
  attr {
    key: "value"
    value {
      tensor {
        dtype: DT_INT32
        tensor_shape {
          dim {
            size: 1
          }
        }
        int_val: 3
      }
    }
  }
}
node {
  name: "batch_normalization_1/strided_slice_2/stack_2"
  op: "Const"
  attr {
    key: "dtype"
    value {
      type: DT_INT32
    }
  }
  attr {
    key: "value"
    value {
      tensor {
        dtype: DT_INT32
        tensor_shape {
          dim {
            size: 1
          }
        }
        int_val: 1
      }
    }
  }
}
node {
  name: "batch_normalization_1/strided_slice_2"
  op: "StridedSlice"
  input: "batch_normalization_1/Shape_2"
  input: "batch_normalization_1/strided_slice_2/stack"
  input: "batch_normalization_1/strided_slice_2/stack_1"
  input: "batch_normalization_1/strided_slice_2/stack_2"
  attr {
    key: "Index"
    value {
      type: DT_INT32
    }
  }
  attr {
    key: "T"
    value {
      type: DT_INT32
    }
  }
  attr {
    key: "begin_mask"
    value {
      i: 0
    }
  }
  attr {
    key: "ellipsis_mask"
    value {
      i: 0
    }
  }
  attr {
    key: "end_mask"
    value {
      i: 0
    }
  }
  attr {
    key: "new_axis_mask"
    value {
      i: 0
    }
  }
  attr {
    key: "shrink_axis_mask"
    value {
      i: 1
    }
  }
}
node {
  name: "batch_normalization_1/Rank/packed"
  op: "Pack"
  input: "batch_normalization_1/strided_slice"
  input: "batch_normalization_1/strided_slice_1"
  input: "batch_normalization_1/strided_slice_2"
  attr {
    key: "N"
    value {
      i: 3
    }
  }
  attr {
    key: "T"
    value {
      type: DT_INT32
    }
  }
  attr {
    key: "axis"
    value {
      i: 0
    }
  }
}
node {
  name: "batch_normalization_1/Rank"
  op: "Const"
  attr {
    key: "dtype"
    value {
      type: DT_INT32
    }
  }
  attr {
    key: "value"
    value {
      tensor {
        dtype: DT_INT32
        tensor_shape {
        }
        int_val: 1
      }
    }
  }
}
node {
  name: "batch_normalization_1/range/start"
  op: "Const"
  attr {
    key: "dtype"
    value {
      type: DT_INT32
    }
  }
  attr {
    key: "value"
    value {
      tensor {
        dtype: DT_INT32
        tensor_shape {
        }
        int_val: 0
      }
    }
  }
}
node {
  name: "batch_normalization_1/range/delta"
  op: "Const"
  attr {
    key: "dtype"
    value {
      type: DT_INT32
    }
  }
  attr {
    key: "value"
    value {
      tensor {
        dtype: DT_INT32
        tensor_shape {
        }
        int_val: 1
      }
    }
  }
}
node {
  name: "batch_normalization_1/range"
  op: "Range"
  input: "batch_normalization_1/range/start"
  input: "batch_normalization_1/Rank"
  input: "batch_normalization_1/range/delta"
  attr {
    key: "Tidx"
    value {
      type: DT_INT32
    }
  }
}
node {
  name: "batch_normalization_1/Prod/input"
  op: "Pack"
  input: "batch_normalization_1/strided_slice"
  input: "batch_normalization_1/strided_slice_1"
  input: "batch_normalization_1/strided_slice_2"
  attr {
    key: "N"
    value {
      i: 3
    }
  }
  attr {
    key: "T"
    value {
      type: DT_INT32
    }
  }
  attr {
    key: "axis"
    value {
      i: 0
    }
  }
}
node {
  name: "batch_normalization_1/Prod"
  op: "Prod"
  input: "batch_normalization_1/Prod/input"
  input: "batch_normalization_1/range"
  attr {
    key: "T"
    value {
      type: DT_INT32
    }
  }
  attr {
    key: "Tidx"
    value {
      type: DT_INT32
    }
  }
  attr {
    key: "keep_dims"
    value {
      b: false
    }
  }
}
node {
  name: "batch_normalization_1/Cast"
  op: "Cast"
  input: "batch_normalization_1/Prod"
  attr {
    key: "DstT"
    value {
      type: DT_FLOAT
    }
  }
  attr {
    key: "SrcT"
    value {
      type: DT_INT32
    }
  }
}
node {
  name: "batch_normalization_1/sub/y"
  op: "Const"
  attr {
    key: "dtype"
    value {
      type: DT_FLOAT
    }
  }
  attr {
    key: "value"
    value {
      tensor {
        dtype: DT_FLOAT
        tensor_shape {
        }
        float_val: 1.0010000467300415
      }
    }
  }
}
node {
  name: "batch_normalization_1/sub"
  op: "Sub"
  input: "batch_normalization_1/Cast"
  input: "batch_normalization_1/sub/y"
  attr {
    key: "T"
    value {
      type: DT_FLOAT
    }
  }
}
node {
  name: "batch_normalization_1/truediv"
  op: "RealDiv"
  input: "batch_normalization_1/Cast"
  input: "batch_normalization_1/sub"
  attr {
    key: "T"
    value {
      type: DT_FLOAT
    }
  }
}
node {
  name: "batch_normalization_1/mul"
  op: "Mul"
  input: "batch_normalization_1/FusedBatchNorm:2"
  input: "batch_normalization_1/truediv"
  attr {
    key: "T"
    value {
      type: DT_FLOAT
    }
  }
}
node {
  name: "batch_normalization_1/AssignMovingAvg/decay"
  op: "Const"
  attr {
    key: "_class"
    value {
      list {
        s: "loc:@batch_normalization_1/moving_mean"
      }
    }
  }
  attr {
    key: "dtype"
    value {
      type: DT_FLOAT
    }
  }
  attr {
    key: "value"
    value {
      tensor {
        dtype: DT_FLOAT
        tensor_shape {
        }
        float_val: 0.009999999776482582
      }
    }
  }
}
node {
  name: "batch_normalization_1/AssignMovingAvg/batch_normalization_1/moving_mean/zeros"
  op: "Const"
  attr {
    key: "_class"
    value {
      list {
        s: "loc:@batch_normalization_1/moving_mean"
      }
    }
  }
  attr {
    key: "dtype"
    value {
      type: DT_FLOAT
    }
  }
  attr {
    key: "value"
    value {
      tensor {
        dtype: DT_FLOAT
        tensor_shape {
          dim {
            size: 32
          }
        }
        float_val: 0.0
      }
    }
  }
}
node {
  name: "batch_normalization_1/moving_mean/biased"
  op: "VariableV2"
  attr {
    key: "_class"
    value {
      list {
        s: "loc:@batch_normalization_1/moving_mean"
      }
    }
  }
  attr {
    key: "container"
    value {
      s: ""
    }
  }
  attr {
    key: "dtype"
    value {
      type: DT_FLOAT
    }
  }
  attr {
    key: "shape"
    value {
      shape {
        dim {
          size: 32
        }
      }
    }
  }
  attr {
    key: "shared_name"
    value {
      s: ""
    }
  }
}
node {
  name: "batch_normalization_1/moving_mean/biased/Assign"
  op: "Assign"
  input: "batch_normalization_1/moving_mean/biased"
  input: "batch_normalization_1/AssignMovingAvg/batch_normalization_1/moving_mean/zeros"
  attr {
    key: "T"
    value {
      type: DT_FLOAT
    }
  }
  attr {
    key: "_class"
    value {
      list {
        s: "loc:@batch_normalization_1/moving_mean"
      }
    }
  }
  attr {
    key: "use_locking"
    value {
      b: true
    }
  }
  attr {
    key: "validate_shape"
    value {
      b: true
    }
  }
}
node {
  name: "batch_normalization_1/moving_mean/biased/read"
  op: "Identity"
  input: "batch_normalization_1/moving_mean/biased"
  attr {
    key: "T"
    value {
      type: DT_FLOAT
    }
  }
  attr {
    key: "_class"
    value {
      list {
        s: "loc:@batch_normalization_1/moving_mean"
      }
    }
  }
}
node {
  name: "batch_normalization_1/moving_mean/local_step/Initializer/zeros"
  op: "Const"
  attr {
    key: "_class"
    value {
      list {
        s: "loc:@batch_normalization_1/moving_mean"
      }
    }
  }
  attr {
    key: "dtype"
    value {
      type: DT_FLOAT
    }
  }
  attr {
    key: "value"
    value {
      tensor {
        dtype: DT_FLOAT
        tensor_shape {
        }
        float_val: 0.0
      }
    }
  }
}
node {
  name: "batch_normalization_1/moving_mean/local_step"
  op: "VariableV2"
  attr {
    key: "_class"
    value {
      list {
        s: "loc:@batch_normalization_1/moving_mean"
      }
    }
  }
  attr {
    key: "container"
    value {
      s: ""
    }
  }
  attr {
    key: "dtype"
    value {
      type: DT_FLOAT
    }
  }
  attr {
    key: "shape"
    value {
      shape {
      }
    }
  }
  attr {
    key: "shared_name"
    value {
      s: ""
    }
  }
}
node {
  name: "batch_normalization_1/moving_mean/local_step/Assign"
  op: "Assign"
  input: "batch_normalization_1/moving_mean/local_step"
  input: "batch_normalization_1/moving_mean/local_step/Initializer/zeros"
  attr {
    key: "T"
    value {
      type: DT_FLOAT
    }
  }
  attr {
    key: "_class"
    value {
      list {
        s: "loc:@batch_normalization_1/moving_mean"
      }
    }
  }
  attr {
    key: "use_locking"
    value {
      b: true
    }
  }
  attr {
    key: "validate_shape"
    value {
      b: true
    }
  }
}
node {
  name: "batch_normalization_1/moving_mean/local_step/read"
  op: "Identity"
  input: "batch_normalization_1/moving_mean/local_step"
  attr {
    key: "T"
    value {
      type: DT_FLOAT
    }
  }
  attr {
    key: "_class"
    value {
      list {
        s: "loc:@batch_normalization_1/moving_mean"
      }
    }
  }
}
node {
  name: "batch_normalization_1/AssignMovingAvg/batch_normalization_1/moving_mean/sub"
  op: "Sub"
  input: "batch_normalization_1/moving_mean/biased/read"
  input: "batch_normalization_1/FusedBatchNorm:1"
  attr {
    key: "T"
    value {
      type: DT_FLOAT
    }
  }
  attr {
    key: "_class"
    value {
      list {
        s: "loc:@batch_normalization_1/moving_mean"
      }
    }
  }
}
node {
  name: "batch_normalization_1/AssignMovingAvg/batch_normalization_1/moving_mean/mul"
  op: "Mul"
  input: "batch_normalization_1/AssignMovingAvg/batch_normalization_1/moving_mean/sub"
  input: "batch_normalization_1/AssignMovingAvg/decay"
  attr {
    key: "T"
    value {
      type: DT_FLOAT
    }
  }
  attr {
    key: "_class"
    value {
      list {
        s: "loc:@batch_normalization_1/moving_mean"
      }
    }
  }
}
node {
  name: "batch_normalization_1/AssignMovingAvg/batch_normalization_1/moving_mean/batch_normalization_1/moving_mean"
  op: "AssignSub"
  input: "batch_normalization_1/moving_mean/biased"
  input: "batch_normalization_1/AssignMovingAvg/batch_normalization_1/moving_mean/mul"
  attr {
    key: "T"
    value {
      type: DT_FLOAT
    }
  }
  attr {
    key: "_class"
    value {
      list {
        s: "loc:@batch_normalization_1/moving_mean"
      }
    }
  }
  attr {
    key: "use_locking"
    value {
      b: false
    }
  }
}
node {
  name: "batch_normalization_1/AssignMovingAvg/batch_normalization_1/moving_mean/AssignAdd/value"
  op: "Const"
  attr {
    key: "_class"
    value {
      list {
        s: "loc:@batch_normalization_1/moving_mean"
      }
    }
  }
  attr {
    key: "dtype"
    value {
      type: DT_FLOAT
    }
  }
  attr {
    key: "value"
    value {
      tensor {
        dtype: DT_FLOAT
        tensor_shape {
        }
        float_val: 1.0
      }
    }
  }
}
node {
  name: "batch_normalization_1/AssignMovingAvg/batch_normalization_1/moving_mean/AssignAdd"
  op: "AssignAdd"
  input: "batch_normalization_1/moving_mean/local_step"
  input: "batch_normalization_1/AssignMovingAvg/batch_normalization_1/moving_mean/AssignAdd/value"
  attr {
    key: "T"
    value {
      type: DT_FLOAT
    }
  }
  attr {
    key: "_class"
    value {
      list {
        s: "loc:@batch_normalization_1/moving_mean"
      }
    }
  }
  attr {
    key: "use_locking"
    value {
      b: false
    }
  }
}
node {
  name: "batch_normalization_1/AssignMovingAvg/batch_normalization_1/moving_mean/read"
  op: "Identity"
  input: "batch_normalization_1/moving_mean/biased"
  input: "^batch_normalization_1/AssignMovingAvg/batch_normalization_1/moving_mean/AssignAdd"
  input: "^batch_normalization_1/AssignMovingAvg/batch_normalization_1/moving_mean/batch_normalization_1/moving_mean"
  attr {
    key: "T"
    value {
      type: DT_FLOAT
    }
  }
  attr {
    key: "_class"
    value {
      list {
        s: "loc:@batch_normalization_1/moving_mean"
      }
    }
  }
}
node {
  name: "batch_normalization_1/AssignMovingAvg/batch_normalization_1/moving_mean/sub_1/x"
  op: "Const"
  input: "^batch_normalization_1/AssignMovingAvg/batch_normalization_1/moving_mean/AssignAdd"
  input: "^batch_normalization_1/AssignMovingAvg/batch_normalization_1/moving_mean/batch_normalization_1/moving_mean"
  attr {
    key: "_class"
    value {
      list {
        s: "loc:@batch_normalization_1/moving_mean"
      }
    }
  }
  attr {
    key: "dtype"
    value {
      type: DT_FLOAT
    }
  }
  attr {
    key: "value"
    value {
      tensor {
        dtype: DT_FLOAT
        tensor_shape {
        }
        float_val: 1.0
      }
    }
  }
}
node {
  name: "batch_normalization_1/AssignMovingAvg/batch_normalization_1/moving_mean/sub_1"
  op: "Sub"
  input: "batch_normalization_1/AssignMovingAvg/batch_normalization_1/moving_mean/sub_1/x"
  input: "batch_normalization_1/AssignMovingAvg/decay"
  attr {
    key: "T"
    value {
      type: DT_FLOAT
    }
  }
  attr {
    key: "_class"
    value {
      list {
        s: "loc:@batch_normalization_1/moving_mean"
      }
    }
  }
}
node {
  name: "batch_normalization_1/AssignMovingAvg/batch_normalization_1/moving_mean/read_1"
  op: "Identity"
  input: "batch_normalization_1/moving_mean/local_step"
  input: "^batch_normalization_1/AssignMovingAvg/batch_normalization_1/moving_mean/AssignAdd"
  input: "^batch_normalization_1/AssignMovingAvg/batch_normalization_1/moving_mean/batch_normalization_1/moving_mean"
  attr {
    key: "T"
    value {
      type: DT_FLOAT
    }
  }
  attr {
    key: "_class"
    value {
      list {
        s: "loc:@batch_normalization_1/moving_mean"
      }
    }
  }
}
node {
  name: "batch_normalization_1/AssignMovingAvg/batch_normalization_1/moving_mean/Pow"
  op: "Pow"
  input: "batch_normalization_1/AssignMovingAvg/batch_normalization_1/moving_mean/sub_1"
  input: "batch_normalization_1/AssignMovingAvg/batch_normalization_1/moving_mean/read_1"
  attr {
    key: "T"
    value {
      type: DT_FLOAT
    }
  }
  attr {
    key: "_class"
    value {
      list {
        s: "loc:@batch_normalization_1/moving_mean"
      }
    }
  }
}
node {
  name: "batch_normalization_1/AssignMovingAvg/batch_normalization_1/moving_mean/sub_2/x"
  op: "Const"
  input: "^batch_normalization_1/AssignMovingAvg/batch_normalization_1/moving_mean/AssignAdd"
  input: "^batch_normalization_1/AssignMovingAvg/batch_normalization_1/moving_mean/batch_normalization_1/moving_mean"
  attr {
    key: "_class"
    value {
      list {
        s: "loc:@batch_normalization_1/moving_mean"
      }
    }
  }
  attr {
    key: "dtype"
    value {
      type: DT_FLOAT
    }
  }
  attr {
    key: "value"
    value {
      tensor {
        dtype: DT_FLOAT
        tensor_shape {
        }
        float_val: 1.0
      }
    }
  }
}
node {
  name: "batch_normalization_1/AssignMovingAvg/batch_normalization_1/moving_mean/sub_2"
  op: "Sub"
  input: "batch_normalization_1/AssignMovingAvg/batch_normalization_1/moving_mean/sub_2/x"
  input: "batch_normalization_1/AssignMovingAvg/batch_normalization_1/moving_mean/Pow"
  attr {
    key: "T"
    value {
      type: DT_FLOAT
    }
  }
  attr {
    key: "_class"
    value {
      list {
        s: "loc:@batch_normalization_1/moving_mean"
      }
    }
  }
}
node {
  name: "batch_normalization_1/AssignMovingAvg/batch_normalization_1/moving_mean/truediv"
  op: "RealDiv"
  input: "batch_normalization_1/AssignMovingAvg/batch_normalization_1/moving_mean/read"
  input: "batch_normalization_1/AssignMovingAvg/batch_normalization_1/moving_mean/sub_2"
  attr {
    key: "T"
    value {
      type: DT_FLOAT
    }
  }
  attr {
    key: "_class"
    value {
      list {
        s: "loc:@batch_normalization_1/moving_mean"
      }
    }
  }
}
node {
  name: "batch_normalization_1/AssignMovingAvg/batch_normalization_1/moving_mean/sub_3"
  op: "Sub"
  input: "batch_normalization_1/moving_mean/read"
  input: "batch_normalization_1/AssignMovingAvg/batch_normalization_1/moving_mean/truediv"
  attr {
    key: "T"
    value {
      type: DT_FLOAT
    }
  }
  attr {
    key: "_class"
    value {
      list {
        s: "loc:@batch_normalization_1/moving_mean"
      }
    }
  }
}
node {
  name: "batch_normalization_1/AssignMovingAvg"
  op: "AssignSub"
  input: "batch_normalization_1/moving_mean"
  input: "batch_normalization_1/AssignMovingAvg/batch_normalization_1/moving_mean/sub_3"
  attr {
    key: "T"
    value {
      type: DT_FLOAT
    }
  }
  attr {
    key: "_class"
    value {
      list {
        s: "loc:@batch_normalization_1/moving_mean"
      }
    }
  }
  attr {
    key: "use_locking"
    value {
      b: false
    }
  }
}
node {
  name: "batch_normalization_1/AssignMovingAvg_1/decay"
  op: "Const"
  attr {
    key: "_class"
    value {
      list {
        s: "loc:@batch_normalization_1/moving_variance"
      }
    }
  }
  attr {
    key: "dtype"
    value {
      type: DT_FLOAT
    }
  }
  attr {
    key: "value"
    value {
      tensor {
        dtype: DT_FLOAT
        tensor_shape {
        }
        float_val: 0.009999999776482582
      }
    }
  }
}
node {
  name: "batch_normalization_1/AssignMovingAvg_1/batch_normalization_1/moving_variance/zeros"
  op: "Const"
  attr {
    key: "_class"
    value {
      list {
        s: "loc:@batch_normalization_1/moving_variance"
      }
    }
  }
  attr {
    key: "dtype"
    value {
      type: DT_FLOAT
    }
  }
  attr {
    key: "value"
    value {
      tensor {
        dtype: DT_FLOAT
        tensor_shape {
          dim {
            size: 32
          }
        }
        float_val: 0.0
      }
    }
  }
}
node {
  name: "batch_normalization_1/moving_variance/biased"
  op: "VariableV2"
  attr {
    key: "_class"
    value {
      list {
        s: "loc:@batch_normalization_1/moving_variance"
      }
    }
  }
  attr {
    key: "container"
    value {
      s: ""
    }
  }
  attr {
    key: "dtype"
    value {
      type: DT_FLOAT
    }
  }
  attr {
    key: "shape"
    value {
      shape {
        dim {
          size: 32
        }
      }
    }
  }
  attr {
    key: "shared_name"
    value {
      s: ""
    }
  }
}
node {
  name: "batch_normalization_1/moving_variance/biased/Assign"
  op: "Assign"
  input: "batch_normalization_1/moving_variance/biased"
  input: "batch_normalization_1/AssignMovingAvg_1/batch_normalization_1/moving_variance/zeros"
  attr {
    key: "T"
    value {
      type: DT_FLOAT
    }
  }
  attr {
    key: "_class"
    value {
      list {
        s: "loc:@batch_normalization_1/moving_variance"
      }
    }
  }
  attr {
    key: "use_locking"
    value {
      b: true
    }
  }
  attr {
    key: "validate_shape"
    value {
      b: true
    }
  }
}
node {
  name: "batch_normalization_1/moving_variance/biased/read"
  op: "Identity"
  input: "batch_normalization_1/moving_variance/biased"
  attr {
    key: "T"
    value {
      type: DT_FLOAT
    }
  }
  attr {
    key: "_class"
    value {
      list {
        s: "loc:@batch_normalization_1/moving_variance"
      }
    }
  }
}
node {
  name: "batch_normalization_1/moving_variance/local_step/Initializer/zeros"
  op: "Const"
  attr {
    key: "_class"
    value {
      list {
        s: "loc:@batch_normalization_1/moving_variance"
      }
    }
  }
  attr {
    key: "dtype"
    value {
      type: DT_FLOAT
    }
  }
  attr {
    key: "value"
    value {
      tensor {
        dtype: DT_FLOAT
        tensor_shape {
        }
        float_val: 0.0
      }
    }
  }
}
node {
  name: "batch_normalization_1/moving_variance/local_step"
  op: "VariableV2"
  attr {
    key: "_class"
    value {
      list {
        s: "loc:@batch_normalization_1/moving_variance"
      }
    }
  }
  attr {
    key: "container"
    value {
      s: ""
    }
  }
  attr {
    key: "dtype"
    value {
      type: DT_FLOAT
    }
  }
  attr {
    key: "shape"
    value {
      shape {
      }
    }
  }
  attr {
    key: "shared_name"
    value {
      s: ""
    }
  }
}
node {
  name: "batch_normalization_1/moving_variance/local_step/Assign"
  op: "Assign"
  input: "batch_normalization_1/moving_variance/local_step"
  input: "batch_normalization_1/moving_variance/local_step/Initializer/zeros"
  attr {
    key: "T"
    value {
      type: DT_FLOAT
    }
  }
  attr {
    key: "_class"
    value {
      list {
        s: "loc:@batch_normalization_1/moving_variance"
      }
    }
  }
  attr {
    key: "use_locking"
    value {
      b: true
    }
  }
  attr {
    key: "validate_shape"
    value {
      b: true
    }
  }
}
node {
  name: "batch_normalization_1/moving_variance/local_step/read"
  op: "Identity"
  input: "batch_normalization_1/moving_variance/local_step"
  attr {
    key: "T"
    value {
      type: DT_FLOAT
    }
  }
  attr {
    key: "_class"
    value {
      list {
        s: "loc:@batch_normalization_1/moving_variance"
      }
    }
  }
}
node {
  name: "batch_normalization_1/AssignMovingAvg_1/batch_normalization_1/moving_variance/sub"
  op: "Sub"
  input: "batch_normalization_1/moving_variance/biased/read"
  input: "batch_normalization_1/mul"
  attr {
    key: "T"
    value {
      type: DT_FLOAT
    }
  }
  attr {
    key: "_class"
    value {
      list {
        s: "loc:@batch_normalization_1/moving_variance"
      }
    }
  }
}
node {
  name: "batch_normalization_1/AssignMovingAvg_1/batch_normalization_1/moving_variance/mul"
  op: "Mul"
  input: "batch_normalization_1/AssignMovingAvg_1/batch_normalization_1/moving_variance/sub"
  input: "batch_normalization_1/AssignMovingAvg_1/decay"
  attr {
    key: "T"
    value {
      type: DT_FLOAT
    }
  }
  attr {
    key: "_class"
    value {
      list {
        s: "loc:@batch_normalization_1/moving_variance"
      }
    }
  }
}
node {
  name: "batch_normalization_1/AssignMovingAvg_1/batch_normalization_1/moving_variance/batch_normalization_1/moving_variance"
  op: "AssignSub"
  input: "batch_normalization_1/moving_variance/biased"
  input: "batch_normalization_1/AssignMovingAvg_1/batch_normalization_1/moving_variance/mul"
  attr {
    key: "T"
    value {
      type: DT_FLOAT
    }
  }
  attr {
    key: "_class"
    value {
      list {
        s: "loc:@batch_normalization_1/moving_variance"
      }
    }
  }
  attr {
    key: "use_locking"
    value {
      b: false
    }
  }
}
node {
  name: "batch_normalization_1/AssignMovingAvg_1/batch_normalization_1/moving_variance/AssignAdd/value"
  op: "Const"
  attr {
    key: "_class"
    value {
      list {
        s: "loc:@batch_normalization_1/moving_variance"
      }
    }
  }
  attr {
    key: "dtype"
    value {
      type: DT_FLOAT
    }
  }
  attr {
    key: "value"
    value {
      tensor {
        dtype: DT_FLOAT
        tensor_shape {
        }
        float_val: 1.0
      }
    }
  }
}
node {
  name: "batch_normalization_1/AssignMovingAvg_1/batch_normalization_1/moving_variance/AssignAdd"
  op: "AssignAdd"
  input: "batch_normalization_1/moving_variance/local_step"
  input: "batch_normalization_1/AssignMovingAvg_1/batch_normalization_1/moving_variance/AssignAdd/value"
  attr {
    key: "T"
    value {
      type: DT_FLOAT
    }
  }
  attr {
    key: "_class"
    value {
      list {
        s: "loc:@batch_normalization_1/moving_variance"
      }
    }
  }
  attr {
    key: "use_locking"
    value {
      b: false
    }
  }
}
node {
  name: "batch_normalization_1/AssignMovingAvg_1/batch_normalization_1/moving_variance/read"
  op: "Identity"
  input: "batch_normalization_1/moving_variance/biased"
  input: "^batch_normalization_1/AssignMovingAvg_1/batch_normalization_1/moving_variance/AssignAdd"
  input: "^batch_normalization_1/AssignMovingAvg_1/batch_normalization_1/moving_variance/batch_normalization_1/moving_variance"
  attr {
    key: "T"
    value {
      type: DT_FLOAT
    }
  }
  attr {
    key: "_class"
    value {
      list {
        s: "loc:@batch_normalization_1/moving_variance"
      }
    }
  }
}
node {
  name: "batch_normalization_1/AssignMovingAvg_1/batch_normalization_1/moving_variance/sub_1/x"
  op: "Const"
  input: "^batch_normalization_1/AssignMovingAvg_1/batch_normalization_1/moving_variance/AssignAdd"
  input: "^batch_normalization_1/AssignMovingAvg_1/batch_normalization_1/moving_variance/batch_normalization_1/moving_variance"
  attr {
    key: "_class"
    value {
      list {
        s: "loc:@batch_normalization_1/moving_variance"
      }
    }
  }
  attr {
    key: "dtype"
    value {
      type: DT_FLOAT
    }
  }
  attr {
    key: "value"
    value {
      tensor {
        dtype: DT_FLOAT
        tensor_shape {
        }
        float_val: 1.0
      }
    }
  }
}
node {
  name: "batch_normalization_1/AssignMovingAvg_1/batch_normalization_1/moving_variance/sub_1"
  op: "Sub"
  input: "batch_normalization_1/AssignMovingAvg_1/batch_normalization_1/moving_variance/sub_1/x"
  input: "batch_normalization_1/AssignMovingAvg_1/decay"
  attr {
    key: "T"
    value {
      type: DT_FLOAT
    }
  }
  attr {
    key: "_class"
    value {
      list {
        s: "loc:@batch_normalization_1/moving_variance"
      }
    }
  }
}
node {
  name: "batch_normalization_1/AssignMovingAvg_1/batch_normalization_1/moving_variance/read_1"
  op: "Identity"
  input: "batch_normalization_1/moving_variance/local_step"
  input: "^batch_normalization_1/AssignMovingAvg_1/batch_normalization_1/moving_variance/AssignAdd"
  input: "^batch_normalization_1/AssignMovingAvg_1/batch_normalization_1/moving_variance/batch_normalization_1/moving_variance"
  attr {
    key: "T"
    value {
      type: DT_FLOAT
    }
  }
  attr {
    key: "_class"
    value {
      list {
        s: "loc:@batch_normalization_1/moving_variance"
      }
    }
  }
}
node {
  name: "batch_normalization_1/AssignMovingAvg_1/batch_normalization_1/moving_variance/Pow"
  op: "Pow"
  input: "batch_normalization_1/AssignMovingAvg_1/batch_normalization_1/moving_variance/sub_1"
  input: "batch_normalization_1/AssignMovingAvg_1/batch_normalization_1/moving_variance/read_1"
  attr {
    key: "T"
    value {
      type: DT_FLOAT
    }
  }
  attr {
    key: "_class"
    value {
      list {
        s: "loc:@batch_normalization_1/moving_variance"
      }
    }
  }
}
node {
  name: "batch_normalization_1/AssignMovingAvg_1/batch_normalization_1/moving_variance/sub_2/x"
  op: "Const"
  input: "^batch_normalization_1/AssignMovingAvg_1/batch_normalization_1/moving_variance/AssignAdd"
  input: "^batch_normalization_1/AssignMovingAvg_1/batch_normalization_1/moving_variance/batch_normalization_1/moving_variance"
  attr {
    key: "_class"
    value {
      list {
        s: "loc:@batch_normalization_1/moving_variance"
      }
    }
  }
  attr {
    key: "dtype"
    value {
      type: DT_FLOAT
    }
  }
  attr {
    key: "value"
    value {
      tensor {
        dtype: DT_FLOAT
        tensor_shape {
        }
        float_val: 1.0
      }
    }
  }
}
node {
  name: "batch_normalization_1/AssignMovingAvg_1/batch_normalization_1/moving_variance/sub_2"
  op: "Sub"
  input: "batch_normalization_1/AssignMovingAvg_1/batch_normalization_1/moving_variance/sub_2/x"
  input: "batch_normalization_1/AssignMovingAvg_1/batch_normalization_1/moving_variance/Pow"
  attr {
    key: "T"
    value {
      type: DT_FLOAT
    }
  }
  attr {
    key: "_class"
    value {
      list {
        s: "loc:@batch_normalization_1/moving_variance"
      }
    }
  }
}
node {
  name: "batch_normalization_1/AssignMovingAvg_1/batch_normalization_1/moving_variance/truediv"
  op: "RealDiv"
  input: "batch_normalization_1/AssignMovingAvg_1/batch_normalization_1/moving_variance/read"
  input: "batch_normalization_1/AssignMovingAvg_1/batch_normalization_1/moving_variance/sub_2"
  attr {
    key: "T"
    value {
      type: DT_FLOAT
    }
  }
  attr {
    key: "_class"
    value {
      list {
        s: "loc:@batch_normalization_1/moving_variance"
      }
    }
  }
}
node {
  name: "batch_normalization_1/AssignMovingAvg_1/batch_normalization_1/moving_variance/sub_3"
  op: "Sub"
  input: "batch_normalization_1/moving_variance/read"
  input: "batch_normalization_1/AssignMovingAvg_1/batch_normalization_1/moving_variance/truediv"
  attr {
    key: "T"
    value {
      type: DT_FLOAT
    }
  }
  attr {
    key: "_class"
    value {
      list {
        s: "loc:@batch_normalization_1/moving_variance"
      }
    }
  }
}
node {
  name: "batch_normalization_1/AssignMovingAvg_1"
  op: "AssignSub"
  input: "batch_normalization_1/moving_variance"
  input: "batch_normalization_1/AssignMovingAvg_1/batch_normalization_1/moving_variance/sub_3"
  attr {
    key: "T"
    value {
      type: DT_FLOAT
    }
  }
  attr {
    key: "_class"
    value {
      list {
        s: "loc:@batch_normalization_1/moving_variance"
      }
    }
  }
  attr {
    key: "use_locking"
    value {
      b: false
    }
  }
}
node {
  name: "batch_normalization_1/FusedBatchNorm_1"
  op: "FusedBatchNorm"
  input: "conv2d_1/convolution"
  input: "batch_normalization_1/gamma/read"
  input: "batch_normalization_1/beta/read"
  input: "batch_normalization_1/moving_mean/read"
  input: "batch_normalization_1/moving_variance/read"
  attr {
    key: "T"
    value {
      type: DT_FLOAT
    }
  }
  attr {
    key: "data_format"
    value {
      s: "NHWC"
    }
  }
  attr {
    key: "epsilon"
    value {
      f: 0.0010000000474974513
    }
  }
  attr {
    key: "is_training"
    value {
      b: false
    }
  }
}
node {
  name: "leaky_re_lu_1/LeakyRelu/alpha"
  op: "Const"
  attr {
    key: "dtype"
    value {
      type: DT_FLOAT
    }
  }
  attr {
    key: "value"
    value {
      tensor {
        dtype: DT_FLOAT
        tensor_shape {
        }
        float_val: 0.10000000149011612
      }
    }
  }
}
node {
  name: "leaky_re_lu_1/LeakyRelu/mul"
  op: "Mul"
  input: "leaky_re_lu_1/LeakyRelu/alpha"
  input: "batch_normalization_1/FusedBatchNorm_1"
  attr {
    key: "T"
    value {
      type: DT_FLOAT
    }
  }
}
node {
  name: "leaky_re_lu_1/LeakyRelu"
  op: "Maximum"
  input: "leaky_re_lu_1/LeakyRelu/mul"
  input: "batch_normalization_1/FusedBatchNorm_1"
  attr {
    key: "T"
    value {
      type: DT_FLOAT
    }
  }
}
node {
  name: "zero_padding2d_1/Pad/paddings"
  op: "Const"
  attr {
    key: "dtype"
    value {
      type: DT_INT32
    }
  }
  attr {
    key: "value"
    value {
      tensor {
        dtype: DT_INT32
        tensor_shape {
          dim {
            size: 4
          }
          dim {
            size: 2
          }
        }
        tensor_content: "…"
      }
    }
  }
}
node {
  name: "zero_padding2d_1/Pad"
  op: "Pad"
  input: "leaky_re_lu_1/LeakyRelu"
  input: "zero_padding2d_1/Pad/paddings"
  attr {
    key: "T"
    value {
      type: DT_FLOAT
    }
  }
  attr {
    key: "Tpaddings"
    value {
      type: DT_INT32
    }
  }
}
node {
  name: "conv2d_2/random_uniform/shape"
  op: "Const"
  attr {
    key: "dtype"
    value {
      type: DT_INT32
    }
  }
  attr {
    key: "value"
    value {
      tensor {
        dtype: DT_INT32
        tensor_shape {
          dim {
            size: 4
          }
        }
        tensor_content: "\003\000\000\000\003\000\000\000 \000\000\000@\000\000\000"
      }
    }
  }
}
node {
  name: "conv2d_2/random_uniform/min"
  op: "Const"
  attr {
    key: "dtype"
    value {
      type: DT_FLOAT
    }
  }
  attr {
    key: "value"
    value {
      tensor {
        dtype: DT_FLOAT
        tensor_shape {
        }
        float_val: -0.0833333358168602
      }
    }
  }
}
node {
  name: "conv2d_2/random_uniform/max"
  op: "Const"
  attr {
    key: "dtype"
    value {
      type: DT_FLOAT
    }
  }
  attr {
    key: "value"
    value {
      tensor {
        dtype: DT_FLOAT
        tensor_shape {
        }
        float_val: 0.0833333358168602
      }
    }
  }
}
node {
  name: "conv2d_2/random_uniform/RandomUniform"
  op: "RandomUniform"
  input: "conv2d_2/random_uniform/shape"
  attr {
    key: "T"
    value {
      type: DT_INT32
    }
  }
  attr {
    key: "dtype"
    value {
      type: DT_FLOAT
    }
  }
  attr {
    key: "seed"
    value {
      i: 87654321
    }
  }
  attr {
    key: "seed2"
    value {
      i: 3029531
    }
  }
}
node {
  name: "conv2d_2/random_uniform/sub"
  op: "Sub"
  input: "conv2d_2/random_uniform/max"
  input: "conv2d_2/random_uniform/min"
  attr {
    key: "T"
    value {
      type: DT_FLOAT
    }
  }
}
node {
  name: "conv2d_2/random_uniform/mul"
  op: "Mul"
  input: "conv2d_2/random_uniform/RandomUniform"
  input: "conv2d_2/random_uniform/sub"
  attr {
    key: "T"
    value {
      type: DT_FLOAT
    }
  }
}
node {
  name: "conv2d_2/random_uniform"
  op: "Add"
  input: "conv2d_2/random_uniform/mul"
  input: "conv2d_2/random_uniform/min"
  attr {
    key: "T"
    value {
      type: DT_FLOAT
    }
  }
}
node {
  name: "conv2d_2/kernel"
  op: "VariableV2"
  attr {
    key: "container"
    value {
      s: ""
    }
  }
  attr {
    key: "dtype"
    value {
      type: DT_FLOAT
    }
  }
  attr {
    key: "shape"
    value {
      shape {
        dim {
          size: 3
        }
        dim {
          size: 3
        }
        dim {
          size: 32
        }
        dim {
          size: 64
        }
      }
    }
  }
  attr {
    key: "shared_name"
    value {
      s: ""
    }
  }
}
node {
  name: "conv2d_2/kernel/Assign"
  op: "Assign"
  input: "conv2d_2/kernel"
  input: "conv2d_2/random_uniform"
  attr {
    key: "T"
    value {
      type: DT_FLOAT
    }
  }
  attr {
    key: "_class"
    value {
      list {
        s: "loc:@conv2d_2/kernel"
      }
    }
  }
  attr {
    key: "use_locking"
    value {
      b: true
    }
  }
  attr {
    key: "validate_shape"
    value {
      b: true
    }
  }
}
node {
  name: "conv2d_2/kernel/read"
  op: "Identity"
  input: "conv2d_2/kernel"
  attr {
    key: "T"
    value {
      type: DT_FLOAT
    }
  }
  attr {
    key: "_class"
    value {
      list {
        s: "loc:@conv2d_2/kernel"
      }
    }
  }
}
node {
  name: "conv2d_2/weight_regularizer/Square"
  op: "Square"
  input: "conv2d_2/kernel/read"
  attr {
    key: "T"
    value {
      type: DT_FLOAT
    }
  }
}
node {
  name: "conv2d_2/weight_regularizer/mul/x"
  op: "Const"
  attr {
    key: "dtype"
    value {
      type: DT_FLOAT
    }
  }
  attr {
    key: "value"
    value {
      tensor {
        dtype: DT_FLOAT
        tensor_shape {
        }
        float_val: 0.0005000000237487257
      }
    }
  }
}
node {
  name: "conv2d_2/weight_regularizer/mul"
  op: "Mul"
  input: "conv2d_2/weight_regularizer/mul/x"
  input: "conv2d_2/weight_regularizer/Square"
  attr {
    key: "T"
    value {
      type: DT_FLOAT
    }
  }
}
node {
  name: "conv2d_2/weight_regularizer/Const"
  op: "Const"
  attr {
    key: "dtype"
    value {
      type: DT_INT32
    }
  }
  attr {
    key: "value"
    value {
      tensor {
        dtype: DT_INT32
        tensor_shape {
          dim {
            size: 4
          }
        }
        tensor_content: "\000\000\000\000\001\000\000\000\002\000\000\000\003\000\000\000"
      }
    }
  }
}
node {
  name: "conv2d_2/weight_regularizer/Sum"
  op: "Sum"
  input: "conv2d_2/weight_regularizer/mul"
  input: "conv2d_2/weight_regularizer/Const"
  attr {
    key: "T"
    value {
      type: DT_FLOAT
    }
  }
  attr {
    key: "Tidx"
    value {
      type: DT_INT32
    }
  }
  attr {
    key: "keep_dims"
    value {
      b: false
    }
  }
}
node {
  name: "conv2d_2/weight_regularizer/add/x"
  op: "Const"
  attr {
    key: "dtype"
    value {
      type: DT_FLOAT
    }
  }
  attr {
    key: "value"
    value {
      tensor {
        dtype: DT_FLOAT
        tensor_shape {
        }
        float_val: 0.0
      }
    }
  }
}
node {
  name: "conv2d_2/weight_regularizer/add"
  op: "Add"
  input: "conv2d_2/weight_regularizer/add/x"
  input: "conv2d_2/weight_regularizer/Sum"
  attr {
    key: "T"
    value {
      type: DT_FLOAT
    }
  }
}
node {
  name: "conv2d_2/convolution/dilation_rate"
  op: "Const"
  attr {
    key: "dtype"
    value {
      type: DT_INT32
    }
  }
  attr {
    key: "value"
    value {
      tensor {
        dtype: DT_INT32
        tensor_shape {
          dim {
            size: 2
          }
        }
        tensor_content: "\001\000\000\000\001\000\000\000"
      }
    }
  }
}
node {
  name: "conv2d_2/convolution"
  op: "Conv2D"
  input: "zero_padding2d_1/Pad"
  input: "conv2d_2/kernel/read"
  attr {
    key: "T"
    value {
      type: DT_FLOAT
    }
  }
  attr {
    key: "data_format"
    value {
      s: "NHWC"
    }
  }
  attr {
    key: "dilations"
    value {
      list {
        i: 1
        i: 1
        i: 1
        i: 1
      }
    }
  }
  attr {
    key: "padding"
    value {
      s: "VALID"
    }
  }
  attr {
    key: "strides"
    value {
      list {
        i: 1
        i: 2
        i: 2
        i: 1
      }
    }
  }
  attr {
    key: "use_cudnn_on_gpu"
    value {
      b: true
    }
  }
}
node {
  name: "batch_normalization_2/Const"
  op: "Const"
  attr {
    key: "dtype"
    value {
      type: DT_FLOAT
    }
  }
  attr {
    key: "value"
    value {
      tensor {
        dtype: DT_FLOAT
        tensor_shape {
          dim {
            size: 64
          }
        }
        float_val: 1.0
      }
    }
  }
}
node {
  name: "batch_normalization_2/gamma"
  op: "VariableV2"
  attr {
    key: "container"
    value {
      s: ""
    }
  }
  attr {
    key: "dtype"
    value {
      type: DT_FLOAT
    }
  }
  attr {
    key: "shape"
    value {
      shape {
        dim {
          size: 64
        }
      }
    }
  }
  attr {
    key: "shared_name"
    value {
      s: ""
    }
  }
}
node {
  name: "batch_normalization_2/gamma/Assign"
  op: "Assign"
  input: "batch_normalization_2/gamma"
  input: "batch_normalization_2/Const"
  attr {
    key: "T"
    value {
      type: DT_FLOAT
    }
  }
  attr {
    key: "_class"
    value {
      list {
        s: "loc:@batch_normalization_2/gamma"
      }
    }
  }
  attr {
    key: "use_locking"
    value {
      b: true
    }
  }
  attr {
    key: "validate_shape"
    value {
      b: true
    }
  }
}
node {
  name: "batch_normalization_2/gamma/read"
  op: "Identity"
  input: "batch_normalization_2/gamma"
  attr {
    key: "T"
    value {
      type: DT_FLOAT
    }
  }
  attr {
    key: "_class"
    value {
      list {
        s: "loc:@batch_normalization_2/gamma"
      }
    }
  }
}
node {
  name: "batch_normalization_2/Const_1"
  op: "Const"
  attr {
    key: "dtype"
    value {
      type: DT_FLOAT
    }
  }
  attr {
    key: "value"
    value {
      tensor {
        dtype: DT_FLOAT
        tensor_shape {
          dim {
            size: 64
          }
        }
        float_val: 0.0
      }
    }
  }
}
node {
  name: "batch_normalization_2/beta"
  op: "VariableV2"
  attr {
    key: "container"
    value {
      s: ""
    }
  }
  attr {
    key: "dtype"
    value {
      type: DT_FLOAT
    }
  }
  attr {
    key: "shape"
    value {
      shape {
        dim {
          size: 64
        }
      }
    }
  }
  attr {
    key: "shared_name"
    value {
      s: ""
    }
  }
}
node {
  name: "batch_normalization_2/beta/Assign"
  op: "Assign"
  input: "batch_normalization_2/beta"
  input: "batch_normalization_2/Const_1"
  attr {
    key: "T"
    value {
      type: DT_FLOAT
    }
  }
  attr {
    key: "_class"
    value {
      list {
        s: "loc:@batch_normalization_2/beta"
      }
    }
  }
  attr {
    key: "use_locking"
    value {
      b: true
    }
  }
  attr {
    key: "validate_shape"
    value {
      b: true
    }
  }
}
node {
  name: "batch_normalization_2/beta/read"
  op: "Identity"
  input: "batch_normalization_2/beta"
  attr {
    key: "T"
    value {
      type: DT_FLOAT
    }
  }
  attr {
    key: "_class"
    value {
      list {
        s: "loc:@batch_normalization_2/beta"
      }
    }
  }
}
node {
  name: "batch_normalization_2/Const_2"
  op: "Const"
  attr {
    key: "dtype"
    value {
      type: DT_FLOAT
    }
  }
  attr {
    key: "value"
    value {
      tensor {
        dtype: DT_FLOAT
        tensor_shape {
          dim {
            size: 64
          }
        }
        float_val: 0.0
      }
    }
  }
}
node {
  name: "batch_normalization_2/moving_mean"
  op: "VariableV2"
  attr {
    key: "container"
    value {
      s: ""
    }
  }
  attr {
    key: "dtype"
    value {
      type: DT_FLOAT
    }
  }
  attr {
    key: "shape"
    value {
      shape {
        dim {
          size: 64
        }
      }
    }
  }
  attr {
    key: "shared_name"
    value {
      s: ""
    }
  }
}
node {
  name: "batch_normalization_2/moving_mean/Assign"
  op: "Assign"
  input: "batch_normalization_2/moving_mean"
  input: "batch_normalization_2/Const_2"
  attr {
    key: "T"
    value {
      type: DT_FLOAT
    }
  }
  attr {
    key: "_class"
    value {
      list {
        s: "loc:@batch_normalization_2/moving_mean"
      }
    }
  }
  attr {
    key: "use_locking"
    value {
      b: true
    }
  }
  attr {
    key: "validate_shape"
    value {
      b: true
    }
  }
}
node {
  name: "batch_normalization_2/moving_mean/read"
  op: "Identity"
  input: "batch_normalization_2/moving_mean"
  attr {
    key: "T"
    value {
      type: DT_FLOAT
    }
  }
  attr {
    key: "_class"
    value {
      list {
        s: "loc:@batch_normalization_2/moving_mean"
      }
    }
  }
}
node {
  name: "batch_normalization_2/Const_3"
  op: "Const"
  attr {
    key: "dtype"
    value {
      type: DT_FLOAT
    }
  }
  attr {
    key: "value"
    value {
      tensor {
        dtype: DT_FLOAT
        tensor_shape {
          dim {
            size: 64
          }
        }
        float_val: 1.0
      }
    }
  }
}
node {
  name: "batch_normalization_2/moving_variance"
  op: "VariableV2"
  attr {
    key: "container"
    value {
      s: ""
    }
  }
  attr {
    key: "dtype"
    value {
      type: DT_FLOAT
    }
  }
  attr {
    key: "shape"
    value {
      shape {
        dim {
          size: 64
        }
      }
    }
  }
  attr {
    key: "shared_name"
    value {
      s: ""
    }
  }
}
node {
  name: "batch_normalization_2/moving_variance/Assign"
  op: "Assign"
  input: "batch_normalization_2/moving_variance"
  input: "batch_normalization_2/Const_3"
  attr {
    key: "T"
    value {
      type: DT_FLOAT
    }
  }
  attr {
    key: "_class"
    value {
      list {
        s: "loc:@batch_normalization_2/moving_variance"
      }
    }
  }
  attr {
    key: "use_locking"
    value {
      b: true
    }
  }
  attr {
    key: "validate_shape"
    value {
      b: true
    }
  }
}
node {
  name: "batch_normalization_2/moving_variance/read"
  op: "Identity"
  input: "batch_normalization_2/moving_variance"
  attr {
    key: "T"
    value {
      type: DT_FLOAT
    }
  }
  attr {
    key: "_class"
    value {
      list {
        s: "loc:@batch_normalization_2/moving_variance"
      }
    }
  }
}
node {
  name: "batch_normalization_2/Const_4"
  op: "Const"
  attr {
    key: "dtype"
    value {
      type: DT_FLOAT
    }
  }
  attr {
    key: "value"
    value {
      tensor {
        dtype: DT_FLOAT
        tensor_shape {
          dim {
          }
        }
      }
    }
  }
}
node {
  name: "batch_normalization_2/Const_5"
  op: "Const"
  attr {
    key: "dtype"
    value {
      type: DT_FLOAT
    }
  }
  attr {
    key: "value"
    value {
      tensor {
        dtype: DT_FLOAT
        tensor_shape {
          dim {
          }
        }
      }
    }
  }
}
node {
  name: "batch_normalization_2/FusedBatchNorm"
  op: "FusedBatchNorm"
  input: "conv2d_2/convolution"
  input: "batch_normalization_2/gamma/read"
  input: "batch_normalization_2/beta/read"
  input: "batch_normalization_2/Const_4"
  input: "batch_normalization_2/Const_5"
  attr {
    key: "T"
    value {
      type: DT_FLOAT
    }
  }
  attr {
    key: "data_format"
    value {
      s: "NHWC"
    }
  }
  attr {
    key: "epsilon"
    value {
      f: 0.0010000000474974513
    }
  }
  attr {
    key: "is_training"
    value {
      b: true
    }
  }
}
node {
  name: "batch_normalization_2/Shape"
  op: "Shape"
  input: "conv2d_2/convolution"
  attr {
    key: "T"
    value {
      type: DT_FLOAT
    }
  }
  attr {
    key: "out_type"
    value {
      type: DT_INT32
    }
  }
}
node {
  name: "batch_normalization_2/strided_slice/stack"
  op: "Const"
  attr {
    key: "dtype"
    value {
      type: DT_INT32
    }
  }
  attr {
    key: "value"
    value {
      tensor {
        dtype: DT_INT32
        tensor_shape {
          dim {
            size: 1
          }
        }
        int_val: 0
      }
    }
  }
}
node {
  name: "batch_normalization_2/strided_slice/stack_1"
  op: "Const"
  attr {
    key: "dtype"
    value {
      type: DT_INT32
    }
  }
  attr {
    key: "value"
    value {
      tensor {
        dtype: DT_INT32
        tensor_shape {
          dim {
            size: 1
          }
        }
        int_val: 1
      }
    }
  }
}
node {
  name: "batch_normalization_2/strided_slice/stack_2"
  op: "Const"
  attr {
    key: "dtype"
    value {
      type: DT_INT32
    }
  }
  attr {
    key: "value"
    value {
      tensor {
        dtype: DT_INT32
        tensor_shape {
          dim {
            size: 1
          }
        }
        int_val: 1
      }
    }
  }
}
node {
  name: "batch_normalization_2/strided_slice"
  op: "StridedSlice"
  input: "batch_normalization_2/Shape"
  input: "batch_normalization_2/strided_slice/stack"
  input: "batch_normalization_2/strided_slice/stack_1"
  input: "batch_normalization_2/strided_slice/stack_2"
  attr {
    key: "Index"
    value {
      type: DT_INT32
    }
  }
  attr {
    key: "T"
    value {
      type: DT_INT32
    }
  }
  attr {
    key: "begin_mask"
    value {
      i: 0
    }
  }
  attr {
    key: "ellipsis_mask"
    value {
      i: 0
    }
  }
  attr {
    key: "end_mask"
    value {
      i: 0
    }
  }
  attr {
    key: "new_axis_mask"
    value {
      i: 0
    }
  }
  attr {
    key: "shrink_axis_mask"
    value {
      i: 1
    }
  }
}
node {
  name: "batch_normalization_2/Shape_1"
  op: "Shape"
  input: "conv2d_2/convolution"
  attr {
    key: "T"
    value {
      type: DT_FLOAT
    }
  }
  attr {
    key: "out_type"
    value {
      type: DT_INT32
    }
  }
}
node {
  name: "batch_normalization_2/strided_slice_1/stack"
  op: "Const"
  attr {
    key: "dtype"
    value {
      type: DT_INT32
    }
  }
  attr {
    key: "value"
    value {
      tensor {
        dtype: DT_INT32
        tensor_shape {
          dim {
            size: 1
          }
        }
        int_val: 1
      }
    }
  }
}
node {
  name: "batch_normalization_2/strided_slice_1/stack_1"
  op: "Const"
  attr {
    key: "dtype"
    value {
      type: DT_INT32
    }
  }
  attr {
    key: "value"
    value {
      tensor {
        dtype: DT_INT32
        tensor_shape {
          dim {
            size: 1
          }
        }
        int_val: 2
      }
    }
  }
}
node {
  name: "batch_normalization_2/strided_slice_1/stack_2"
  op: "Const"
  attr {
    key: "dtype"
    value {
      type: DT_INT32
    }
  }
  attr {
    key: "value"
    value {
      tensor {
        dtype: DT_INT32
        tensor_shape {
          dim {
            size: 1
          }
        }
        int_val: 1
      }
    }
  }
}
node {
  name: "batch_normalization_2/strided_slice_1"
  op: "StridedSlice"
  input: "batch_normalization_2/Shape_1"
  input: "batch_normalization_2/strided_slice_1/stack"
  input: "batch_normalization_2/strided_slice_1/stack_1"
  input: "batch_normalization_2/strided_slice_1/stack_2"
  attr {
    key: "Index"
    value {
      type: DT_INT32
    }
  }
  attr {
    key: "T"
    value {
      type: DT_INT32
    }
  }
  attr {
    key: "begin_mask"
    value {
      i: 0
    }
  }
  attr {
    key: "ellipsis_mask"
    value {
      i: 0
    }
  }
  attr {
    key: "end_mask"
    value {
      i: 0
    }
  }
  attr {
    key: "new_axis_mask"
    value {
      i: 0
    }
  }
  attr {
    key: "shrink_axis_mask"
    value {
      i: 1
    }
  }
}
node {
  name: "batch_normalization_2/Shape_2"
  op: "Shape"
  input: "conv2d_2/convolution"
  attr {
    key: "T"
    value {
      type: DT_FLOAT
    }
  }
  attr {
    key: "out_type"
    value {
      type: DT_INT32
    }
  }
}
node {
  name: "batch_normalization_2/strided_slice_2/stack"
  op: "Const"
  attr {
    key: "dtype"
    value {
      type: DT_INT32
    }
  }
  attr {
    key: "value"
    value {
      tensor {
        dtype: DT_INT32
        tensor_shape {
          dim {
            size: 1
          }
        }
        int_val: 2
      }
    }
  }
}
node {
  name: "batch_normalization_2/strided_slice_2/stack_1"
  op: "Const"
  attr {
    key: "dtype"
    value {
      type: DT_INT32
    }
  }
  attr {
    key: "value"
    value {
      tensor {
        dtype: DT_INT32
        tensor_shape {
          dim {
            size: 1
          }
        }
        int_val: 3
      }
    }
  }
}
node {
  name: "batch_normalization_2/strided_slice_2/stack_2"
  op: "Const"
  attr {
    key: "dtype"
    value {
      type: DT_INT32
    }
  }
  attr {
    key: "value"
    value {
      tensor {
        dtype: DT_INT32
        tensor_shape {
          dim {
            size: 1
          }
        }
        int_val: 1
      }
    }
  }
}
node {
  name: "batch_normalization_2/strided_slice_2"
  op: "StridedSlice"
  input: "batch_normalization_2/Shape_2"
  input: "batch_normalization_2/strided_slice_2/stack"
  input: "batch_normalization_2/strided_slice_2/stack_1"
  input: "batch_normalization_2/strided_slice_2/stack_2"
  attr {
    key: "Index"
    value {
      type: DT_INT32
    }
  }
  attr {
    key: "T"
    value {
      type: DT_INT32
    }
  }
  attr {
    key: "begin_mask"
    value {
      i: 0
    }
  }
  attr {
    key: "ellipsis_mask"
    value {
      i: 0
    }
  }
  attr {
    key: "end_mask"
    value {
      i: 0
    }
  }
  attr {
    key: "new_axis_mask"
    value {
      i: 0
    }
  }
  attr {
    key: "shrink_axis_mask"
    value {
      i: 1
    }
  }
}
node {
  name: "batch_normalization_2/Rank/packed"
  op: "Pack"
  input: "batch_normalization_2/strided_slice"
  input: "batch_normalization_2/strided_slice_1"
  input: "batch_normalization_2/strided_slice_2"
  attr {
    key: "N"
    value {
      i: 3
    }
  }
  attr {
    key: "T"
    value {
      type: DT_INT32
    }
  }
  attr {
    key: "axis"
    value {
      i: 0
    }
  }
}
node {
  name: "batch_normalization_2/Rank"
  op: "Const"
  attr {
    key: "dtype"
    value {
      type: DT_INT32
    }
  }
  attr {
    key: "value"
    value {
      tensor {
        dtype: DT_INT32
        tensor_shape {
        }
        int_val: 1
      }
    }
  }
}
node {
  name: "batch_normalization_2/range/start"
  op: "Const"
  attr {
    key: "dtype"
    value {
      type: DT_INT32
    }
  }
  attr {
    key: "value"
    value {
      tensor {
        dtype: DT_INT32
        tensor_shape {
        }
        int_val: 0
      }
    }
  }
}
node {
  name: "batch_normalization_2/range/delta"
  op: "Const"
  attr {
    key: "dtype"
    value {
      type: DT_INT32
    }
  }
  attr {
    key: "value"
    value {
      tensor {
        dtype: DT_INT32
        tensor_shape {
        }
        int_val: 1
      }
    }
  }
}
node {
  name: "batch_normalization_2/range"
  op: "Range"
  input: "batch_normalization_2/range/start"
  input: "batch_normalization_2/Rank"
  input: "batch_normalization_2/range/delta"
  attr {
    key: "Tidx"
    value {
      type: DT_INT32
    }
  }
}
node {
  name: "batch_normalization_2/Prod/input"
  op: "Pack"
  input: "batch_normalization_2/strided_slice"
  input: "batch_normalization_2/strided_slice_1"
  input: "batch_normalization_2/strided_slice_2"
  attr {
    key: "N"
    value {
      i: 3
    }
  }
  attr {
    key: "T"
    value {
      type: DT_INT32
    }
  }
  attr {
    key: "axis"
    value {
      i: 0
    }
  }
}
node {
  name: "batch_normalization_2/Prod"
  op: "Prod"
  input: "batch_normalization_2/Prod/input"
  input: "batch_normalization_2/range"
  attr {
    key: "T"
    value {
      type: DT_INT32
    }
  }
  attr {
    key: "Tidx"
    value {
      type: DT_INT32
    }
  }
  attr {
    key: "keep_dims"
    value {
      b: false
    }
  }
}
node {
  name: "batch_normalization_2/Cast"
  op: "Cast"
  input: "batch_normalization_2/Prod"
  attr {
    key: "DstT"
    value {
      type: DT_FLOAT
    }
  }
  attr {
    key: "SrcT"
    value {
      type: DT_INT32
    }
  }
}
node {
  name: "batch_normalization_2/sub/y"
  op: "Const"
  attr {
    key: "dtype"
    value {
      type: DT_FLOAT
    }
  }
  attr {
    key: "value"
    value {
      tensor {
        dtype: DT_FLOAT
        tensor_shape {
        }
        float_val: 1.0010000467300415
      }
    }
  }
}
node {
  name: "batch_normalization_2/sub"
  op: "Sub"
  input: "batch_normalization_2/Cast"
  input: "batch_normalization_2/sub/y"
  attr {
    key: "T"
    value {
      type: DT_FLOAT
    }
  }
}
node {
  name: "batch_normalization_2/truediv"
  op: "RealDiv"
  input: "batch_normalization_2/Cast"
  input: "batch_normalization_2/sub"
  attr {
    key: "T"
    value {
      type: DT_FLOAT
    }
  }
}
node {
  name: "batch_normalization_2/mul"
  op: "Mul"
  input: "batch_normalization_2/FusedBatchNorm:2"
  input: "batch_normalization_2/truediv"
  attr {
    key: "T"
    value {
      type: DT_FLOAT
    }
  }
}
node {
  name: "batch_normalization_2/AssignMovingAvg/decay"
  op: "Const"
  attr {
    key: "_class"
    value {
      list {
        s: "loc:@batch_normalization_2/moving_mean"
      }
    }
  }
  attr {
    key: "dtype"
    value {
      type: DT_FLOAT
    }
  }
  attr {
    key: "value"
    value {
      tensor {
        dtype: DT_FLOAT
        tensor_shape {
        }
        float_val: 0.009999999776482582
      }
    }
  }
}
node {
  name: "batch_normalization_2/AssignMovingAvg/batch_normalization_2/moving_mean/zeros"
  op: "Const"
  attr {
    key: "_class"
    value {
      list {
        s: "loc:@batch_normalization_2/moving_mean"
      }
    }
  }
  attr {
    key: "dtype"
    value {
      type: DT_FLOAT
    }
  }
  attr {
    key: "value"
    value {
      tensor {
        dtype: DT_FLOAT
        tensor_shape {
          dim {
            size: 64
          }
        }
        float_val: 0.0
      }
    }
  }
}
node {
  name: "batch_normalization_2/moving_mean/biased"
  op: "VariableV2"
  attr {
    key: "_class"
    value {
      list {
        s: "loc:@batch_normalization_2/moving_mean"
      }
    }
  }
  attr {
    key: "container"
    value {
      s: ""
    }
  }
  attr {
    key: "dtype"
    value {
      type: DT_FLOAT
    }
  }
  attr {
    key: "shape"
    value {
      shape {
        dim {
          size: 64
        }
      }
    }
  }
  attr {
    key: "shared_name"
    value {
      s: ""
    }
  }
}
node {
  name: "batch_normalization_2/moving_mean/biased/Assign"
  op: "Assign"
  input: "batch_normalization_2/moving_mean/biased"
  input: "batch_normalization_2/AssignMovingAvg/batch_normalization_2/moving_mean/zeros"
  attr {
    key: "T"
    value {
      type: DT_FLOAT
    }
  }
  attr {
    key: "_class"
    value {
      list {
        s: "loc:@batch_normalization_2/moving_mean"
      }
    }
  }
  attr {
    key: "use_locking"
    value {
      b: true
    }
  }
  attr {
    key: "validate_shape"
    value {
      b: true
    }
  }
}
node {
  name: "batch_normalization_2/moving_mean/biased/read"
  op: "Identity"
  input: "batch_normalization_2/moving_mean/biased"
  attr {
    key: "T"
    value {
      type: DT_FLOAT
    }
  }
  attr {
    key: "_class"
    value {
      list {
        s: "loc:@batch_normalization_2/moving_mean"
      }
    }
  }
}
node {
  name: "batch_normalization_2/moving_mean/local_step/Initializer/zeros"
  op: "Const"
  attr {
    key: "_class"
    value {
      list {
        s: "loc:@batch_normalization_2/moving_mean"
      }
    }
  }
  attr {
    key: "dtype"
    value {
      type: DT_FLOAT
    }
  }
  attr {
    key: "value"
    value {
      tensor {
        dtype: DT_FLOAT
        tensor_shape {
        }
        float_val: 0.0
      }
    }
  }
}
node {
  name: "batch_normalization_2/moving_mean/local_step"
  op: "VariableV2"
  attr {
    key: "_class"
    value {
      list {
        s: "loc:@batch_normalization_2/moving_mean"
      }
    }
  }
  attr {
    key: "container"
    value {
      s: ""
    }
  }
  attr {
    key: "dtype"
    value {
      type: DT_FLOAT
    }
  }
  attr {
    key: "shape"
    value {
      shape {
      }
    }
  }
  attr {
    key: "shared_name"
    value {
      s: ""
    }
  }
}
node {
  name: "batch_normalization_2/moving_mean/local_step/Assign"
  op: "Assign"
  input: "batch_normalization_2/moving_mean/local_step"
  input: "batch_normalization_2/moving_mean/local_step/Initializer/zeros"
  attr {
    key: "T"
    value {
      type: DT_FLOAT
    }
  }
  attr {
    key: "_class"
    value {
      list {
        s: "loc:@batch_normalization_2/moving_mean"
      }
    }
  }
  attr {
    key: "use_locking"
    value {
      b: true
    }
  }
  attr {
    key: "validate_shape"
    value {
      b: true
    }
  }
}
node {
  name: "batch_normalization_2/moving_mean/local_step/read"
  op: "Identity"
  input: "batch_normalization_2/moving_mean/local_step"
  attr {
    key: "T"
    value {
      type: DT_FLOAT
    }
  }
  attr {
    key: "_class"
    value {
      list {
        s: "loc:@batch_normalization_2/moving_mean"
      }
    }
  }
}
node {
  name: "batch_normalization_2/AssignMovingAvg/batch_normalization_2/moving_mean/sub"
  op: "Sub"
  input: "batch_normalization_2/moving_mean/biased/read"
  input: "batch_normalization_2/FusedBatchNorm:1"
  attr {
    key: "T"
    value {
      type: DT_FLOAT
    }
  }
  attr {
    key: "_class"
    value {
      list {
        s: "loc:@batch_normalization_2/moving_mean"
      }
    }
  }
}
node {
  name: "batch_normalization_2/AssignMovingAvg/batch_normalization_2/moving_mean/mul"
  op: "Mul"
  input: "batch_normalization_2/AssignMovingAvg/batch_normalization_2/moving_mean/sub"
  input: "batch_normalization_2/AssignMovingAvg/decay"
  attr {
    key: "T"
    value {
      type: DT_FLOAT
    }
  }
  attr {
    key: "_class"
    value {
      list {
        s: "loc:@batch_normalization_2/moving_mean"
      }
    }
  }
}
node {
  name: "batch_normalization_2/AssignMovingAvg/batch_normalization_2/moving_mean/batch_normalization_2/moving_mean"
  op: "AssignSub"
  input: "batch_normalization_2/moving_mean/biased"
  input: "batch_normalization_2/AssignMovingAvg/batch_normalization_2/moving_mean/mul"
  attr {
    key: "T"
    value {
      type: DT_FLOAT
    }
  }
  attr {
    key: "_class"
    value {
      list {
        s: "loc:@batch_normalization_2/moving_mean"
      }
    }
  }
  attr {
    key: "use_locking"
    value {
      b: false
    }
  }
}
node {
  name: "batch_normalization_2/AssignMovingAvg/batch_normalization_2/moving_mean/AssignAdd/value"
  op: "Const"
  attr {
    key: "_class"
    value {
      list {
        s: "loc:@batch_normalization_2/moving_mean"
      }
    }
  }
  attr {
    key: "dtype"
    value {
      type: DT_FLOAT
    }
  }
  attr {
    key: "value"
    value {
      tensor {
        dtype: DT_FLOAT
        tensor_shape {
        }
        float_val: 1.0
      }
    }
  }
}
node {
  name: "batch_normalization_2/AssignMovingAvg/batch_normalization_2/moving_mean/AssignAdd"
  op: "AssignAdd"
  input: "batch_normalization_2/moving_mean/local_step"
  input: "batch_normalization_2/AssignMovingAvg/batch_normalization_2/moving_mean/AssignAdd/value"
  attr {
    key: "T"
    value {
      type: DT_FLOAT
    }
  }
  attr {
    key: "_class"
    value {
      list {
        s: "loc:@batch_normalization_2/moving_mean"
      }
    }
  }
  attr {
    key: "use_locking"
    value {
      b: false
    }
  }
}
node {
  name: "batch_normalization_2/AssignMovingAvg/batch_normalization_2/moving_mean/read"
  op: "Identity"
  input: "batch_normalization_2/moving_mean/biased"
  input: "^batch_normalization_2/AssignMovingAvg/batch_normalization_2/moving_mean/AssignAdd"
  input: "^batch_normalization_2/AssignMovingAvg/batch_normalization_2/moving_mean/batch_normalization_2/moving_mean"
  attr {
    key: "T"
    value {
      type: DT_FLOAT
    }
  }
  attr {
    key: "_class"
    value {
      list {
        s: "loc:@batch_normalization_2/moving_mean"
      }
    }
  }
}
node {
  name: "batch_normalization_2/AssignMovingAvg/batch_normalization_2/moving_mean/sub_1/x"
  op: "Const"
  input: "^batch_normalization_2/AssignMovingAvg/batch_normalization_2/moving_mean/AssignAdd"
  input: "^batch_normalization_2/AssignMovingAvg/batch_normalization_2/moving_mean/batch_normalization_2/moving_mean"
  attr {
    key: "_class"
    value {
      list {
        s: "loc:@batch_normalization_2/moving_mean"
      }
    }
  }
  attr {
    key: "dtype"
    value {
      type: DT_FLOAT
    }
  }
  attr {
    key: "value"
    value {
      tensor {
        dtype: DT_FLOAT
        tensor_shape {
        }
        float_val: 1.0
      }
    }
  }
}
node {
  name: "batch_normalization_2/AssignMovingAvg/batch_normalization_2/moving_mean/sub_1"
  op: "Sub"
  input: "batch_normalization_2/AssignMovingAvg/batch_normalization_2/moving_mean/sub_1/x"
  input: "batch_normalization_2/AssignMovingAvg/decay"
  attr {
    key: "T"
    value {
      type: DT_FLOAT
    }
  }
  attr {
    key: "_class"
    value {
      list {
        s: "loc:@batch_normalization_2/moving_mean"
      }
    }
  }
}
node {
  name: "batch_normalization_2/AssignMovingAvg/batch_normalization_2/moving_mean/read_1"
  op: "Identity"
  input: "batch_normalization_2/moving_mean/local_step"
  input: "^batch_normalization_2/AssignMovingAvg/batch_normalization_2/moving_mean/AssignAdd"
  input: "^batch_normalization_2/AssignMovingAvg/batch_normalization_2/moving_mean/batch_normalization_2/moving_mean"
  attr {
    key: "T"
    value {
      type: DT_FLOAT
    }
  }
  attr {
    key: "_class"
    value {
      list {
        s: "loc:@batch_normalization_2/moving_mean"
      }
    }
  }
}
node {
  name: "batch_normalization_2/AssignMovingAvg/batch_normalization_2/moving_mean/Pow"
  op: "Pow"
  input: "batch_normalization_2/AssignMovingAvg/batch_normalization_2/moving_mean/sub_1"
  input: "batch_normalization_2/AssignMovingAvg/batch_normalization_2/moving_mean/read_1"
  attr {
    key: "T"
    value {
      type: DT_FLOAT
    }
  }
  attr {
    key: "_class"
    value {
      list {
        s: "loc:@batch_normalization_2/moving_mean"
      }
    }
  }
}
node {
  name: "batch_normalization_2/AssignMovingAvg/batch_normalization_2/moving_mean/sub_2/x"
  op: "Const"
  input: "^batch_normalization_2/AssignMovingAvg/batch_normalization_2/moving_mean/AssignAdd"
  input: "^batch_normalization_2/AssignMovingAvg/batch_normalization_2/moving_mean/batch_normalization_2/moving_mean"
  attr {
    key: "_class"
    value {
      list {
        s: "loc:@batch_normalization_2/moving_mean"
      }
    }
  }
  attr {
    key: "dtype"
    value {
      type: DT_FLOAT
    }
  }
  attr {
    key: "value"
    value {
      tensor {
        dtype: DT_FLOAT
        tensor_shape {
        }
        float_val: 1.0
      }
    }
  }
}
node {
  name: "batch_normalization_2/AssignMovingAvg/batch_normalization_2/moving_mean/sub_2"
  op: "Sub"
  input: "batch_normalization_2/AssignMovingAvg/batch_normalization_2/moving_mean/sub_2/x"
  input: "batch_normalization_2/AssignMovingAvg/batch_normalization_2/moving_mean/Pow"
  attr {
    key: "T"
    value {
      type: DT_FLOAT
    }
  }
  attr {
    key: "_class"
    value {
      list {
        s: "loc:@batch_normalization_2/moving_mean"
      }
    }
  }
}
node {
  name: "batch_normalization_2/AssignMovingAvg/batch_normalization_2/moving_mean/truediv"
  op: "RealDiv"
  input: "batch_normalization_2/AssignMovingAvg/batch_normalization_2/moving_mean/read"
  input: "batch_normalization_2/AssignMovingAvg/batch_normalization_2/moving_mean/sub_2"
  attr {
    key: "T"
    value {
      type: DT_FLOAT
    }
  }
  attr {
    key: "_class"
    value {
      list {
        s: "loc:@batch_normalization_2/moving_mean"
      }
    }
  }
}
node {
  name: "batch_normalization_2/AssignMovingAvg/batch_normalization_2/moving_mean/sub_3"
  op: "Sub"
  input: "batch_normalization_2/moving_mean/read"
  input: "batch_normalization_2/AssignMovingAvg/batch_normalization_2/moving_mean/truediv"
  attr {
    key: "T"
    value {
      type: DT_FLOAT
    }
  }
  attr {
    key: "_class"
    value {
      list {
        s: "loc:@batch_normalization_2/moving_mean"
      }
    }
  }
}
node {
  name: "batch_normalization_2/AssignMovingAvg"
  op: "AssignSub"
  input: "batch_normalization_2/moving_mean"
  input: "batch_normalization_2/AssignMovingAvg/batch_normalization_2/moving_mean/sub_3"
  attr {
    key: "T"
    value {
      type: DT_FLOAT
    }
  }
  attr {
    key: "_class"
    value {
      list {
        s: "loc:@batch_normalization_2/moving_mean"
      }
    }
  }
  attr {
    key: "use_locking"
    value {
      b: false
    }
  }
}
node {
  name: "batch_normalization_2/AssignMovingAvg_1/decay"
  op: "Const"
  attr {
    key: "_class"
    value {
      list {
        s: "loc:@batch_normalization_2/moving_variance"
      }
    }
  }
  attr {
    key: "dtype"
    value {
      type: DT_FLOAT
    }
  }
  attr {
    key: "value"
    value {
      tensor {
        dtype: DT_FLOAT
        tensor_shape {
        }
        float_val: 0.009999999776482582
      }
    }
  }
}
node {
  name: "batch_normalization_2/AssignMovingAvg_1/batch_normalization_2/moving_variance/zeros"
  op: "Const"
  attr {
    key: "_class"
    value {
      list {
        s: "loc:@batch_normalization_2/moving_variance"
      }
    }
  }
  attr {
    key: "dtype"
    value {
      type: DT_FLOAT
    }
  }
  attr {
    key: "value"
    value {
      tensor {
        dtype: DT_FLOAT
        tensor_shape {
          dim {
            size: 64
          }
        }
        float_val: 0.0
      }
    }
  }
}
node {
  name: "batch_normalization_2/moving_variance/biased"
  op: "VariableV2"
  attr {
    key: "_class"
    value {
      list {
        s: "loc:@batch_normalization_2/moving_variance"
      }
    }
  }
  attr {
    key: "container"
    value {
      s: ""
    }
  }
  attr {
    key: "dtype"
    value {
      type: DT_FLOAT
    }
  }
  attr {
    key: "shape"
    value {
      shape {
        dim {
          size: 64
        }
      }
    }
  }
  attr {
    key: "shared_name"
    value {
      s: ""
    }
  }
}
node {
  name: "batch_normalization_2/moving_variance/biased/Assign"
  op: "Assign"
  input: "batch_normalization_2/moving_variance/biased"
  input: "batch_normalization_2/AssignMovingAvg_1/batch_normalization_2/moving_variance/zeros"
  attr {
    key: "T"
    value {
      type: DT_FLOAT
    }
  }
  attr {
    key: "_class"
    value {
      list {
        s: "loc:@batch_normalization_2/moving_variance"
      }
    }
  }
  attr {
    key: "use_locking"
    value {
      b: true
    }
  }
  attr {
    key: "validate_shape"
    value {
      b: true
    }
  }
}
node {
  name: "batch_normalization_2/moving_variance/biased/read"
  op: "Identity"
  input: "batch_normalization_2/moving_variance/biased"
  attr {
    key: "T"
    value {
      type: DT_FLOAT
    }
  }
  attr {
    key: "_class"
    value {
      list {
        s: "loc:@batch_normalization_2/moving_variance"
      }
    }
  }
}
node {
  name: "batch_normalization_2/moving_variance/local_step/Initializer/zeros"
  op: "Const"
  attr {
    key: "_class"
    value {
      list {
        s: "loc:@batch_normalization_2/moving_variance"
      }
    }
  }
  attr {
    key: "dtype"
    value {
      type: DT_FLOAT
    }
  }
  attr {
    key: "value"
    value {
      tensor {
        dtype: DT_FLOAT
        tensor_shape {
        }
        float_val: 0.0
      }
    }
  }
}
node {
  name: "batch_normalization_2/moving_variance/local_step"
  op: "VariableV2"
  attr {
    key: "_class"
    value {
      list {
        s: "loc:@batch_normalization_2/moving_variance"
      }
    }
  }
  attr {
    key: "container"
    value {
      s: ""
    }
  }
  attr {
    key: "dtype"
    value {
      type: DT_FLOAT
    }
  }
  attr {
    key: "shape"
    value {
      shape {
      }
    }
  }
  attr {
    key: "shared_name"
    value {
      s: ""
    }
  }
}
node {
  name: "batch_normalization_2/moving_variance/local_step/Assign"
  op: "Assign"
  input: "batch_normalization_2/moving_variance/local_step"
  input: "batch_normalization_2/moving_variance/local_step/Initializer/zeros"
  attr {
    key: "T"
    value {
      type: DT_FLOAT
    }
  }
  attr {
    key: "_class"
    value {
      list {
        s: "loc:@batch_normalization_2/moving_variance"
      }
    }
  }
  attr {
    key: "use_locking"
    value {
      b: true
    }
  }
  attr {
    key: "validate_shape"
    value {
      b: true
    }
  }
}
node {
  name: "batch_normalization_2/moving_variance/local_step/read"
  op: "Identity"
  input: "batch_normalization_2/moving_variance/local_step"
  attr {
    key: "T"
    value {
      type: DT_FLOAT
    }
  }
  attr {
    key: "_class"
    value {
      list {
        s: "loc:@batch_normalization_2/moving_variance"
      }
    }
  }
}
node {
  name: "batch_normalization_2/AssignMovingAvg_1/batch_normalization_2/moving_variance/sub"
  op: "Sub"
  input: "batch_normalization_2/moving_variance/biased/read"
  input: "batch_normalization_2/mul"
  attr {
    key: "T"
    value {
      type: DT_FLOAT
    }
  }
  attr {
    key: "_class"
    value {
      list {
        s: "loc:@batch_normalization_2/moving_variance"
      }
    }
  }
}
node {
  name: "batch_normalization_2/AssignMovingAvg_1/batch_normalization_2/moving_variance/mul"
  op: "Mul"
  input: "batch_normalization_2/AssignMovingAvg_1/batch_normalization_2/moving_variance/sub"
  input: "batch_normalization_2/AssignMovingAvg_1/decay"
  attr {
    key: "T"
    value {
      type: DT_FLOAT
    }
  }
  attr {
    key: "_class"
    value {
      list {
        s: "loc:@batch_normalization_2/moving_variance"
      }
    }
  }
}
node {
  name: "batch_normalization_2/AssignMovingAvg_1/batch_normalization_2/moving_variance/batch_normalization_2/moving_variance"
  op: "AssignSub"
  input: "batch_normalization_2/moving_variance/biased"
  input: "batch_normalization_2/AssignMovingAvg_1/batch_normalization_2/moving_variance/mul"
  attr {
    key: "T"
    value {
      type: DT_FLOAT
    }
  }
  attr {
    key: "_class"
    value {
      list {
        s: "loc:@batch_normalization_2/moving_variance"
      }
    }
  }
  attr {
    key: "use_locking"
    value {
      b: false
    }
  }
}
node {
  name: "batch_normalization_2/AssignMovingAvg_1/batch_normalization_2/moving_variance/AssignAdd/value"
  op: "Const"
  attr {
    key: "_class"
    value {
      list {
        s: "loc:@batch_normalization_2/moving_variance"
      }
    }
  }
  attr {
    key: "dtype"
    value {
      type: DT_FLOAT
    }
  }
  attr {
    key: "value"
    value {
      tensor {
        dtype: DT_FLOAT
        tensor_shape {
        }
        float_val: 1.0
      }
    }
  }
}
node {
  name: "batch_normalization_2/AssignMovingAvg_1/batch_normalization_2/moving_variance/AssignAdd"
  op: "AssignAdd"
  input: "batch_normalization_2/moving_variance/local_step"
  input: "batch_normalization_2/AssignMovingAvg_1/batch_normalization_2/moving_variance/AssignAdd/value"
  attr {
    key: "T"
    value {
      type: DT_FLOAT
    }
  }
  attr {
    key: "_class"
    value {
      list {
        s: "loc:@batch_normalization_2/moving_variance"
      }
    }
  }
  attr {
    key: "use_locking"
    value {
      b: false
    }
  }
}
node {
  name: "batch_normalization_2/AssignMovingAvg_1/batch_normalization_2/moving_variance/read"
  op: "Identity"
  input: "batch_normalization_2/moving_variance/biased"
  input: "^batch_normalization_2/AssignMovingAvg_1/batch_normalization_2/moving_variance/AssignAdd"
  input: "^batch_normalization_2/AssignMovingAvg_1/batch_normalization_2/moving_variance/batch_normalization_2/moving_variance"
  attr {
    key: "T"
    value {
      type: DT_FLOAT
    }
  }
  attr {
    key: "_class"
    value {
      list {
        s: "loc:@batch_normalization_2/moving_variance"
      }
    }
  }
}
node {
  name: "batch_normalization_2/AssignMovingAvg_1/batch_normalization_2/moving_variance/sub_1/x"
  op: "Const"
  input: "^batch_normalization_2/AssignMovingAvg_1/batch_normalization_2/moving_variance/AssignAdd"
  input: "^batch_normalization_2/AssignMovingAvg_1/batch_normalization_2/moving_variance/batch_normalization_2/moving_variance"
  attr {
    key: "_class"
    value {
      list {
        s: "loc:@batch_normalization_2/moving_variance"
      }
    }
  }
  attr {
    key: "dtype"
    value {
      type: DT_FLOAT
    }
  }
  attr {
    key: "value"
    value {
      tensor {
        dtype: DT_FLOAT
        tensor_shape {
        }
        float_val: 1.0
      }
    }
  }
}
node {
  name: "batch_normalization_2/AssignMovingAvg_1/batch_normalization_2/moving_variance/sub_1"
  op: "Sub"
  input: "batch_normalization_2/AssignMovingAvg_1/batch_normalization_2/moving_variance/sub_1/x"
  input: "batch_normalization_2/AssignMovingAvg_1/decay"
  attr {
    key: "T"
    value {
      type: DT_FLOAT
    }
  }
  attr {
    key: "_class"
    value {
      list {
        s: "loc:@batch_normalization_2/moving_variance"
      }
    }
  }
}
node {
  name: "batch_normalization_2/AssignMovingAvg_1/batch_normalization_2/moving_variance/read_1"
  op: "Identity"
  input: "batch_normalization_2/moving_variance/local_step"
  input: "^batch_normalization_2/AssignMovingAvg_1/batch_normalization_2/moving_variance/AssignAdd"
  input: "^batch_normalization_2/AssignMovingAvg_1/batch_normalization_2/moving_variance/batch_normalization_2/moving_variance"
  attr {
    key: "T"
    value {
      type: DT_FLOAT
    }
  }
  attr {
    key: "_class"
    value {
      list {
        s: "loc:@batch_normalization_2/moving_variance"
      }
    }
  }
}
node {
  name: "batch_normalization_2/AssignMovingAvg_1/batch_normalization_2/moving_variance/Pow"
  op: "Pow"
  input: "batch_normalization_2/AssignMovingAvg_1/batch_normalization_2/moving_variance/sub_1"
  input: "batch_normalization_2/AssignMovingAvg_1/batch_normalization_2/moving_variance/read_1"
  attr {
    key: "T"
    value {
      type: DT_FLOAT
    }
  }
  attr {
    key: "_class"
    value {
      list {
        s: "loc:@batch_normalization_2/moving_variance"
      }
    }
  }
}
node {
  name: "batch_normalization_2/AssignMovingAvg_1/batch_normalization_2/moving_variance/sub_2/x"
  op: "Const"
  input: "^batch_normalization_2/AssignMovingAvg_1/batch_normalization_2/moving_variance/AssignAdd"
  input: "^batch_normalization_2/AssignMovingAvg_1/batch_normalization_2/moving_variance/batch_normalization_2/moving_variance"
  attr {
    key: "_class"
    value {
      list {
        s: "loc:@batch_normalization_2/moving_variance"
      }
    }
  }
  attr {
    key: "dtype"
    value {
      type: DT_FLOAT
    }
  }
  attr {
    key: "value"
    value {
      tensor {
        dtype: DT_FLOAT
        tensor_shape {
        }
        float_val: 1.0
      }
    }
  }
}
node {
  name: "batch_normalization_2/AssignMovingAvg_1/batch_normalization_2/moving_variance/sub_2"
  op: "Sub"
  input: "batch_normalization_2/AssignMovingAvg_1/batch_normalization_2/moving_variance/sub_2/x"
  input: "batch_normalization_2/AssignMovingAvg_1/batch_normalization_2/moving_variance/Pow"
  attr {
    key: "T"
    value {
      type: DT_FLOAT
    }
  }
  attr {
    key: "_class"
    value {
      list {
        s: "loc:@batch_normalization_2/moving_variance"
      }
    }
  }
}
node {
  name: "batch_normalization_2/AssignMovingAvg_1/batch_normalization_2/moving_variance/truediv"
  op: "RealDiv"
  input: "batch_normalization_2/AssignMovingAvg_1/batch_normalization_2/moving_variance/read"
  input: "batch_normalization_2/AssignMovingAvg_1/batch_normalization_2/moving_variance/sub_2"
  attr {
    key: "T"
    value {
      type: DT_FLOAT
    }
  }
  attr {
    key: "_class"
    value {
      list {
        s: "loc:@batch_normalization_2/moving_variance"
      }
    }
  }
}
node {
  name: "batch_normalization_2/AssignMovingAvg_1/batch_normalization_2/moving_variance/sub_3"
  op: "Sub"
  input: "batch_normalization_2/moving_variance/read"
  input: "batch_normalization_2/AssignMovingAvg_1/batch_normalization_2/moving_variance/truediv"
  attr {
    key: "T"
    value {
      type: DT_FLOAT
    }
  }
  attr {
    key: "_class"
    value {
      list {
        s: "loc:@batch_normalization_2/moving_variance"
      }
    }
  }
}
node {
  name: "batch_normalization_2/AssignMovingAvg_1"
  op: "AssignSub"
  input: "batch_normalization_2/moving_variance"
  input: "batch_normalization_2/AssignMovingAvg_1/batch_normalization_2/moving_variance/sub_3"
  attr {
    key: "T"
    value {
      type: DT_FLOAT
    }
  }
  attr {
    key: "_class"
    value {
      list {
        s: "loc:@batch_normalization_2/moving_variance"
      }
    }
  }
  attr {
    key: "use_locking"
    value {
      b: false
    }
  }
}
node {
  name: "batch_normalization_2/FusedBatchNorm_1"
  op: "FusedBatchNorm"
  input: "conv2d_2/convolution"
  input: "batch_normalization_2/gamma/read"
  input: "batch_normalization_2/beta/read"
  input: "batch_normalization_2/moving_mean/read"
  input: "batch_normalization_2/moving_variance/read"
  attr {
    key: "T"
    value {
      type: DT_FLOAT
    }
  }
  attr {
    key: "data_format"
    value {
      s: "NHWC"
    }
  }
  attr {
    key: "epsilon"
    value {
      f: 0.0010000000474974513
    }
  }
  attr {
    key: "is_training"
    value {
      b: false
    }
  }
}
node {
  name: "leaky_re_lu_2/LeakyRelu/alpha"
  op: "Const"
  attr {
    key: "dtype"
    value {
      type: DT_FLOAT
    }
  }
  attr {
    key: "value"
    value {
      tensor {
        dtype: DT_FLOAT
        tensor_shape {
        }
        float_val: 0.10000000149011612
      }
    }
  }
}
node {
  name: "leaky_re_lu_2/LeakyRelu/mul"
  op: "Mul"
  input: "leaky_re_lu_2/LeakyRelu/alpha"
  input: "batch_normalization_2/FusedBatchNorm_1"
  attr {
    key: "T"
    value {
      type: DT_FLOAT
    }
  }
}
node {
  name: "leaky_re_lu_2/LeakyRelu"
  op: "Maximum"
  input: "leaky_re_lu_2/LeakyRelu/mul"
  input: "batch_normalization_2/FusedBatchNorm_1"
  attr {
    key: "T"
    value {
      type: DT_FLOAT
    }
  }
}
node {
  name: "conv2d_3/random_uniform/shape"
  op: "Const"
  attr {
    key: "dtype"
    value {
      type: DT_INT32
    }
  }
  attr {
    key: "value"
    value {
      tensor {
        dtype: DT_INT32
        tensor_shape {
          dim {
            size: 4
          }
        }
        tensor_content: "\001\000\000\000\001\000\000\000@\000\000\000 \000\000\000"
      }
    }
  }
}
node {
  name: "conv2d_3/random_uniform/min"
  op: "Const"
  attr {
    key: "dtype"
    value {
      type: DT_FLOAT
    }
  }
  attr {
    key: "value"
    value {
      tensor {
        dtype: DT_FLOAT
        tensor_shape {
        }
        float_val: -0.25
      }
    }
  }
}
node {
  name: "conv2d_3/random_uniform/max"
  op: "Const"
  attr {
    key: "dtype"
    value {
      type: DT_FLOAT
    }
  }
  attr {
    key: "value"
    value {
      tensor {
        dtype: DT_FLOAT
        tensor_shape {
        }
        float_val: 0.25
      }
    }
  }
}
node {
  name: "conv2d_3/random_uniform/RandomUniform"
  op: "RandomUniform"
  input: "conv2d_3/random_uniform/shape"
  attr {
    key: "T"
    value {
      type: DT_INT32
    }
  }
  attr {
    key: "dtype"
    value {
      type: DT_FLOAT
    }
  }
  attr {
    key: "seed"
    value {
      i: 87654321
    }
  }
  attr {
    key: "seed2"
    value {
      i: 9948750
    }
  }
}
node {
  name: "conv2d_3/random_uniform/sub"
  op: "Sub"
  input: "conv2d_3/random_uniform/max"
  input: "conv2d_3/random_uniform/min"
  attr {
    key: "T"
    value {
      type: DT_FLOAT
    }
  }
}
node {
  name: "conv2d_3/random_uniform/mul"
  op: "Mul"
  input: "conv2d_3/random_uniform/RandomUniform"
  input: "conv2d_3/random_uniform/sub"
  attr {
    key: "T"
    value {
      type: DT_FLOAT
    }
  }
}
node {
  name: "conv2d_3/random_uniform"
  op: "Add"
  input: "conv2d_3/random_uniform/mul"
  input: "conv2d_3/random_uniform/min"
  attr {
    key: "T"
    value {
      type: DT_FLOAT
    }
  }
}
node {
  name: "conv2d_3/kernel"
  op: "VariableV2"
  attr {
    key: "container"
    value {
      s: ""
    }
  }
  attr {
    key: "dtype"
    value {
      type: DT_FLOAT
    }
  }
  attr {
    key: "shape"
    value {
      shape {
        dim {
          size: 1
        }
        dim {
          size: 1
        }
        dim {
          size: 64
        }
        dim {
          size: 32
        }
      }
    }
  }
  attr {
    key: "shared_name"
    value {
      s: ""
    }
  }
}
node {
  name: "conv2d_3/kernel/Assign"
  op: "Assign"
  input: "conv2d_3/kernel"
  input: "conv2d_3/random_uniform"
  attr {
    key: "T"
    value {
      type: DT_FLOAT
    }
  }
  attr {
    key: "_class"
    value {
      list {
        s: "loc:@conv2d_3/kernel"
      }
    }
  }
  attr {
    key: "use_locking"
    value {
      b: true
    }
  }
  attr {
    key: "validate_shape"
    value {
      b: true
    }
  }
}
node {
  name: "conv2d_3/kernel/read"
  op: "Identity"
  input: "conv2d_3/kernel"
  attr {
    key: "T"
    value {
      type: DT_FLOAT
    }
  }
  attr {
    key: "_class"
    value {
      list {
        s: "loc:@conv2d_3/kernel"
      }
    }
  }
}
node {
  name: "conv2d_3/weight_regularizer/Square"
  op: "Square"
  input: "conv2d_3/kernel/read"
  attr {
    key: "T"
    value {
      type: DT_FLOAT
    }
  }
}
node {
  name: "conv2d_3/weight_regularizer/mul/x"
  op: "Const"
  attr {
    key: "dtype"
    value {
      type: DT_FLOAT
    }
  }
  attr {
    key: "value"
    value {
      tensor {
        dtype: DT_FLOAT
        tensor_shape {
        }
        float_val: 0.0005000000237487257
      }
    }
  }
}
node {
  name: "conv2d_3/weight_regularizer/mul"
  op: "Mul"
  input: "conv2d_3/weight_regularizer/mul/x"
  input: "conv2d_3/weight_regularizer/Square"
  attr {
    key: "T"
    value {
      type: DT_FLOAT
    }
  }
}
node {
  name: "conv2d_3/weight_regularizer/Const"
  op: "Const"
  attr {
    key: "dtype"
    value {
      type: DT_INT32
    }
  }
  attr {
    key: "value"
    value {
      tensor {
        dtype: DT_INT32
        tensor_shape {
          dim {
            size: 4
          }
        }
        tensor_content: "\000\000\000\000\001\000\000\000\002\000\000\000\003\000\000\000"
      }
    }
  }
}
node {
  name: "conv2d_3/weight_regularizer/Sum"
  op: "Sum"
  input: "conv2d_3/weight_regularizer/mul"
  input: "conv2d_3/weight_regularizer/Const"
  attr {
    key: "T"
    value {
      type: DT_FLOAT
    }
  }
  attr {
    key: "Tidx"
    value {
      type: DT_INT32
    }
  }
  attr {
    key: "keep_dims"
    value {
      b: false
    }
  }
}
node {
  name: "conv2d_3/weight_regularizer/add/x"
  op: "Const"
  attr {
    key: "dtype"
    value {
      type: DT_FLOAT
    }
  }
  attr {
    key: "value"
    value {
      tensor {
        dtype: DT_FLOAT
        tensor_shape {
        }
        float_val: 0.0
      }
    }
  }
}
node {
  name: "conv2d_3/weight_regularizer/add"
  op: "Add"
  input: "conv2d_3/weight_regularizer/add/x"
  input: "conv2d_3/weight_regularizer/Sum"
  attr {
    key: "T"
    value {
      type: DT_FLOAT
    }
  }
}
node {
  name: "conv2d_3/convolution/dilation_rate"
  op: "Const"
  attr {
    key: "dtype"
    value {
      type: DT_INT32
    }
  }
  attr {
    key: "value"
    value {
      tensor {
        dtype: DT_INT32
        tensor_shape {
          dim {
            size: 2
          }
        }
        tensor_content: "\001\000\000\000\001\000\000\000"
      }
    }
  }
}
node {
  name: "conv2d_3/convolution"
  op: "Conv2D"
  input: "leaky_re_lu_2/LeakyRelu"
  input: "conv2d_3/kernel/read"
  attr {
    key: "T"
    value {
      type: DT_FLOAT
    }
  }
  attr {
    key: "data_format"
    value {
      s: "NHWC"
    }
  }
  attr {
    key: "dilations"
    value {
      list {
        i: 1
        i: 1
        i: 1
        i: 1
      }
    }
  }
  attr {
    key: "padding"
    value {
      s: "SAME"
    }
  }
  attr {
    key: "strides"
    value {
      list {
        i: 1
        i: 1
        i: 1
        i: 1
      }
    }
  }
  attr {
    key: "use_cudnn_on_gpu"
    value {
      b: true
    }
  }
}
node {
  name: "batch_normalization_3/Const"
  op: "Const"
  attr {
    key: "dtype"
    value {
      type: DT_FLOAT
    }
  }
  attr {
    key: "value"
    value {
      tensor {
        dtype: DT_FLOAT
        tensor_shape {
          dim {
            size: 32
          }
        }
        float_val: 1.0
      }
    }
  }
}
node {
  name: "batch_normalization_3/gamma"
  op: "VariableV2"
  attr {
    key: "container"
    value {
      s: ""
    }
  }
  attr {
    key: "dtype"
    value {
      type: DT_FLOAT
    }
  }
  attr {
    key: "shape"
    value {
      shape {
        dim {
          size: 32
        }
      }
    }
  }
  attr {
    key: "shared_name"
    value {
      s: ""
    }
  }
}
node {
  name: "batch_normalization_3/gamma/Assign"
  op: "Assign"
  input: "batch_normalization_3/gamma"
  input: "batch_normalization_3/Const"
  attr {
    key: "T"
    value {
      type: DT_FLOAT
    }
  }
  attr {
    key: "_class"
    value {
      list {
        s: "loc:@batch_normalization_3/gamma"
      }
    }
  }
  attr {
    key: "use_locking"
    value {
      b: true
    }
  }
  attr {
    key: "validate_shape"
    value {
      b: true
    }
  }
}
node {
  name: "batch_normalization_3/gamma/read"
  op: "Identity"
  input: "batch_normalization_3/gamma"
  attr {
    key: "T"
    value {
      type: DT_FLOAT
    }
  }
  attr {
    key: "_class"
    value {
      list {
        s: "loc:@batch_normalization_3/gamma"
      }
    }
  }
}
node {
  name: "batch_normalization_3/Const_1"
  op: "Const"
  attr {
    key: "dtype"
    value {
      type: DT_FLOAT
    }
  }
  attr {
    key: "value"
    value {
      tensor {
        dtype: DT_FLOAT
        tensor_shape {
          dim {
            size: 32
          }
        }
        float_val: 0.0
      }
    }
  }
}
node {
  name: "batch_normalization_3/beta"
  op: "VariableV2"
  attr {
    key: "container"
    value {
      s: ""
    }
  }
  attr {
    key: "dtype"
    value {
      type: DT_FLOAT
    }
  }
  attr {
    key: "shape"
    value {
      shape {
        dim {
          size: 32
        }
      }
    }
  }
  attr {
    key: "shared_name"
    value {
      s: ""
    }
  }
}
node {
  name: "batch_normalization_3/beta/Assign"
  op: "Assign"
  input: "batch_normalization_3/beta"
  input: "batch_normalization_3/Const_1"
  attr {
    key: "T"
    value {
      type: DT_FLOAT
    }
  }
  attr {
    key: "_class"
    value {
      list {
        s: "loc:@batch_normalization_3/beta"
      }
    }
  }
  attr {
    key: "use_locking"
    value {
      b: true
    }
  }
  attr {
    key: "validate_shape"
    value {
      b: true
    }
  }
}
node {
  name: "batch_normalization_3/beta/read"
  op: "Identity"
  input: "batch_normalization_3/beta"
  attr {
    key: "T"
    value {
      type: DT_FLOAT
    }
  }
  attr {
    key: "_class"
    value {
      list {
        s: "loc:@batch_normalization_3/beta"
      }
    }
  }
}
node {
  name: "batch_normalization_3/Const_2"
  op: "Const"
  attr {
    key: "dtype"
    value {
      type: DT_FLOAT
    }
  }
  attr {
    key: "value"
    value {
      tensor {
        dtype: DT_FLOAT
        tensor_shape {
          dim {
            size: 32
          }
        }
        float_val: 0.0
      }
    }
  }
}
node {
  name: "batch_normalization_3/moving_mean"
  op: "VariableV2"
  attr {
    key: "container"
    value {
      s: ""
    }
  }
  attr {
    key: "dtype"
    value {
      type: DT_FLOAT
    }
  }
  attr {
    key: "shape"
    value {
      shape {
        dim {
          size: 32
        }
      }
    }
  }
  attr {
    key: "shared_name"
    value {
      s: ""
    }
  }
}
node {
  name: "batch_normalization_3/moving_mean/Assign"
  op: "Assign"
  input: "batch_normalization_3/moving_mean"
  input: "batch_normalization_3/Const_2"
  attr {
    key: "T"
    value {
      type: DT_FLOAT
    }
  }
  attr {
    key: "_class"
    value {
      list {
        s: "loc:@batch_normalization_3/moving_mean"
      }
    }
  }
  attr {
    key: "use_locking"
    value {
      b: true
    }
  }
  attr {
    key: "validate_shape"
    value {
      b: true
    }
  }
}
node {
  name: "batch_normalization_3/moving_mean/read"
  op: "Identity"
  input: "batch_normalization_3/moving_mean"
  attr {
    key: "T"
    value {
      type: DT_FLOAT
    }
  }
  attr {
    key: "_class"
    value {
      list {
        s: "loc:@batch_normalization_3/moving_mean"
      }
    }
  }
}
node {
  name: "batch_normalization_3/Const_3"
  op: "Const"
  attr {
    key: "dtype"
    value {
      type: DT_FLOAT
    }
  }
  attr {
    key: "value"
    value {
      tensor {
        dtype: DT_FLOAT
        tensor_shape {
          dim {
            size: 32
          }
        }
        float_val: 1.0
      }
    }
  }
}
node {
  name: "batch_normalization_3/moving_variance"
  op: "VariableV2"
  attr {
    key: "container"
    value {
      s: ""
    }
  }
  attr {
    key: "dtype"
    value {
      type: DT_FLOAT
    }
  }
  attr {
    key: "shape"
    value {
      shape {
        dim {
          size: 32
        }
      }
    }
  }
  attr {
    key: "shared_name"
    value {
      s: ""
    }
  }
}
node {
  name: "batch_normalization_3/moving_variance/Assign"
  op: "Assign"
  input: "batch_normalization_3/moving_variance"
  input: "batch_normalization_3/Const_3"
  attr {
    key: "T"
    value {
      type: DT_FLOAT
    }
  }
  attr {
    key: "_class"
    value {
      list {
        s: "loc:@batch_normalization_3/moving_variance"
      }
    }
  }
  attr {
    key: "use_locking"
    value {
      b: true
    }
  }
  attr {
    key: "validate_shape"
    value {
      b: true
    }
  }
}
node {
  name: "batch_normalization_3/moving_variance/read"
  op: "Identity"
  input: "batch_normalization_3/moving_variance"
  attr {
    key: "T"
    value {
      type: DT_FLOAT
    }
  }
  attr {
    key: "_class"
    value {
      list {
        s: "loc:@batch_normalization_3/moving_variance"
      }
    }
  }
}
node {
  name: "batch_normalization_3/Const_4"
  op: "Const"
  attr {
    key: "dtype"
    value {
      type: DT_FLOAT
    }
  }
  attr {
    key: "value"
    value {
      tensor {
        dtype: DT_FLOAT
        tensor_shape {
          dim {
          }
        }
      }
    }
  }
}
node {
  name: "batch_normalization_3/Const_5"
  op: "Const"
  attr {
    key: "dtype"
    value {
      type: DT_FLOAT
    }
  }
  attr {
    key: "value"
    value {
      tensor {
        dtype: DT_FLOAT
        tensor_shape {
          dim {
          }
        }
      }
    }
  }
}
node {
  name: "batch_normalization_3/FusedBatchNorm"
  op: "FusedBatchNorm"
  input: "conv2d_3/convolution"
  input: "batch_normalization_3/gamma/read"
  input: "batch_normalization_3/beta/read"
  input: "batch_normalization_3/Const_4"
  input: "batch_normalization_3/Const_5"
  attr {
    key: "T"
    value {
      type: DT_FLOAT
    }
  }
  attr {
    key: "data_format"
    value {
      s: "NHWC"
    }
  }
  attr {
    key: "epsilon"
    value {
      f: 0.0010000000474974513
    }
  }
  attr {
    key: "is_training"
    value {
      b: true
    }
  }
}
node {
  name: "batch_normalization_3/Shape"
  op: "Shape"
  input: "conv2d_3/convolution"
  attr {
    key: "T"
    value {
      type: DT_FLOAT
    }
  }
  attr {
    key: "out_type"
    value {
      type: DT_INT32
    }
  }
}
node {
  name: "batch_normalization_3/strided_slice/stack"
  op: "Const"
  attr {
    key: "dtype"
    value {
      type: DT_INT32
    }
  }
  attr {
    key: "value"
    value {
      tensor {
        dtype: DT_INT32
        tensor_shape {
          dim {
            size: 1
          }
        }
        int_val: 0
      }
    }
  }
}
node {
  name: "batch_normalization_3/strided_slice/stack_1"
  op: "Const"
  attr {
    key: "dtype"
    value {
      type: DT_INT32
    }
  }
  attr {
    key: "value"
    value {
      tensor {
        dtype: DT_INT32
        tensor_shape {
          dim {
            size: 1
          }
        }
        int_val: 1
      }
    }
  }
}
node {
  name: "batch_normalization_3/strided_slice/stack_2"
  op: "Const"
  attr {
    key: "dtype"
    value {
      type: DT_INT32
    }
  }
  attr {
    key: "value"
    value {
      tensor {
        dtype: DT_INT32
        tensor_shape {
          dim {
            size: 1
          }
        }
        int_val: 1
      }
    }
  }
}
node {
  name: "batch_normalization_3/strided_slice"
  op: "StridedSlice"
  input: "batch_normalization_3/Shape"
  input: "batch_normalization_3/strided_slice/stack"
  input: "batch_normalization_3/strided_slice/stack_1"
  input: "batch_normalization_3/strided_slice/stack_2"
  attr {
    key: "Index"
    value {
      type: DT_INT32
    }
  }
  attr {
    key: "T"
    value {
      type: DT_INT32
    }
  }
  attr {
    key: "begin_mask"
    value {
      i: 0
    }
  }
  attr {
    key: "ellipsis_mask"
    value {
      i: 0
    }
  }
  attr {
    key: "end_mask"
    value {
      i: 0
    }
  }
  attr {
    key: "new_axis_mask"
    value {
      i: 0
    }
  }
  attr {
    key: "shrink_axis_mask"
    value {
      i: 1
    }
  }
}
node {
  name: "batch_normalization_3/Shape_1"
  op: "Shape"
  input: "conv2d_3/convolution"
  attr {
    key: "T"
    value {
      type: DT_FLOAT
    }
  }
  attr {
    key: "out_type"
    value {
      type: DT_INT32
    }
  }
}
node {
  name: "batch_normalization_3/strided_slice_1/stack"
  op: "Const"
  attr {
    key: "dtype"
    value {
      type: DT_INT32
    }
  }
  attr {
    key: "value"
    value {
      tensor {
        dtype: DT_INT32
        tensor_shape {
          dim {
            size: 1
          }
        }
        int_val: 1
      }
    }
  }
}
node {
  name: "batch_normalization_3/strided_slice_1/stack_1"
  op: "Const"
  attr {
    key: "dtype"
    value {
      type: DT_INT32
    }
  }
  attr {
    key: "value"
    value {
      tensor {
        dtype: DT_INT32
        tensor_shape {
          dim {
            size: 1
          }
        }
        int_val: 2
      }
    }
  }
}
node {
  name: "batch_normalization_3/strided_slice_1/stack_2"
  op: "Const"
  attr {
    key: "dtype"
    value {
      type: DT_INT32
    }
  }
  attr {
    key: "value"
    value {
      tensor {
        dtype: DT_INT32
        tensor_shape {
          dim {
            size: 1
          }
        }
        int_val: 1
      }
    }
  }
}
node {
  name: "batch_normalization_3/strided_slice_1"
  op: "StridedSlice"
  input: "batch_normalization_3/Shape_1"
  input: "batch_normalization_3/strided_slice_1/stack"
  input: "batch_normalization_3/strided_slice_1/stack_1"
  input: "batch_normalization_3/strided_slice_1/stack_2"
  attr {
    key: "Index"
    value {
      type: DT_INT32
    }
  }
  attr {
    key: "T"
    value {
      type: DT_INT32
    }
  }
  attr {
    key: "begin_mask"
    value {
      i: 0
    }
  }
  attr {
    key: "ellipsis_mask"
    value {
      i: 0
    }
  }
  attr {
    key: "end_mask"
    value {
      i: 0
    }
  }
  attr {
    key: "new_axis_mask"
    value {
      i: 0
    }
  }
  attr {
    key: "shrink_axis_mask"
    value {
      i: 1
    }
  }
}
node {
  name: "batch_normalization_3/Shape_2"
  op: "Shape"
  input: "conv2d_3/convolution"
  attr {
    key: "T"
    value {
      type: DT_FLOAT
    }
  }
  attr {
    key: "out_type"
    value {
      type: DT_INT32
    }
  }
}
node {
  name: "batch_normalization_3/strided_slice_2/stack"
  op: "Const"
  attr {
    key: "dtype"
    value {
      type: DT_INT32
    }
  }
  attr {
    key: "value"
    value {
      tensor {
        dtype: DT_INT32
        tensor_shape {
          dim {
            size: 1
          }
        }
        int_val: 2
      }
    }
  }
}
node {
  name: "batch_normalization_3/strided_slice_2/stack_1"
  op: "Const"
  attr {
    key: "dtype"
    value {
      type: DT_INT32
    }
  }
  attr {
    key: "value"
    value {
      tensor {
        dtype: DT_INT32
        tensor_shape {
          dim {
            size: 1
          }
        }
        int_val: 3
      }
    }
  }
}
node {
  name: "batch_normalization_3/strided_slice_2/stack_2"
  op: "Const"
  attr {
    key: "dtype"
    value {
      type: DT_INT32
    }
  }
  attr {
    key: "value"
    value {
      tensor {
        dtype: DT_INT32
        tensor_shape {
          dim {
            size: 1
          }
        }
        int_val: 1
      }
    }
  }
}
node {
  name: "batch_normalization_3/strided_slice_2"
  op: "StridedSlice"
  input: "batch_normalization_3/Shape_2"
  input: "batch_normalization_3/strided_slice_2/stack"
  input: "batch_normalization_3/strided_slice_2/stack_1"
  input: "batch_normalization_3/strided_slice_2/stack_2"
  attr {
    key: "Index"
    value {
      type: DT_INT32
    }
  }
  attr {
    key: "T"
    value {
      type: DT_INT32
    }
  }
  attr {
    key: "begin_mask"
    value {
      i: 0
    }
  }
  attr {
    key: "ellipsis_mask"
    value {
      i: 0
    }
  }
  attr {
    key: "end_mask"
    value {
      i: 0
    }
  }
  attr {
    key: "new_axis_mask"
    value {
      i: 0
    }
  }
  attr {
    key: "shrink_axis_mask"
    value {
      i: 1
    }
  }
}
node {
  name: "batch_normalization_3/Rank/packed"
  op: "Pack"
  input: "batch_normalization_3/strided_slice"
  input: "batch_normalization_3/strided_slice_1"
  input: "batch_normalization_3/strided_slice_2"
  attr {
    key: "N"
    value {
      i: 3
    }
  }
  attr {
    key: "T"
    value {
      type: DT_INT32
    }
  }
  attr {
    key: "axis"
    value {
      i: 0
    }
  }
}
node {
  name: "batch_normalization_3/Rank"
  op: "Const"
  attr {
    key: "dtype"
    value {
      type: DT_INT32
    }
  }
  attr {
    key: "value"
    value {
      tensor {
        dtype: DT_INT32
        tensor_shape {
        }
        int_val: 1
      }
    }
  }
}
node {
  name: "batch_normalization_3/range/start"
  op: "Const"
  attr {
    key: "dtype"
    value {
      type: DT_INT32
    }
  }
  attr {
    key: "value"
    value {
      tensor {
        dtype: DT_INT32
        tensor_shape {
        }
        int_val: 0
      }
    }
  }
}
node {
  name: "batch_normalization_3/range/delta"
  op: "Const"
  attr {
    key: "dtype"
    value {
      type: DT_INT32
    }
  }
  attr {
    key: "value"
    value {
      tensor {
        dtype: DT_INT32
        tensor_shape {
        }
        int_val: 1
      }
    }
  }
}
node {
  name: "batch_normalization_3/range"
  op: "Range"
  input: "batch_normalization_3/range/start"
  input: "batch_normalization_3/Rank"
  input: "batch_normalization_3/range/delta"
  attr {
    key: "Tidx"
    value {
      type: DT_INT32
    }
  }
}
node {
  name: "batch_normalization_3/Prod/input"
  op: "Pack"
  input: "batch_normalization_3/strided_slice"
  input: "batch_normalization_3/strided_slice_1"
  input: "batch_normalization_3/strided_slice_2"
  attr {
    key: "N"
    value {
      i: 3
    }
  }
  attr {
    key: "T"
    value {
      type: DT_INT32
    }
  }
  attr {
    key: "axis"
    value {
      i: 0
    }
  }
}
node {
  name: "batch_normalization_3/Prod"
  op: "Prod"
  input: "batch_normalization_3/Prod/input"
  input: "batch_normalization_3/range"
  attr {
    key: "T"
    value {
      type: DT_INT32
    }
  }
  attr {
    key: "Tidx"
    value {
      type: DT_INT32
    }
  }
  attr {
    key: "keep_dims"
    value {
      b: false
    }
  }
}
node {
  name: "batch_normalization_3/Cast"
  op: "Cast"
  input: "batch_normalization_3/Prod"
  attr {
    key: "DstT"
    value {
      type: DT_FLOAT
    }
  }
  attr {
    key: "SrcT"
    value {
      type: DT_INT32
    }
  }
}
node {
  name: "batch_normalization_3/sub/y"
  op: "Const"
  attr {
    key: "dtype"
    value {
      type: DT_FLOAT
    }
  }
  attr {
    key: "value"
    value {
      tensor {
        dtype: DT_FLOAT
        tensor_shape {
        }
        float_val: 1.0010000467300415
      }
    }
  }
}
node {
  name: "batch_normalization_3/sub"
  op: "Sub"
  input: "batch_normalization_3/Cast"
  input: "batch_normalization_3/sub/y"
  attr {
    key: "T"
    value {
      type: DT_FLOAT
    }
  }
}
node {
  name: "batch_normalization_3/truediv"
  op: "RealDiv"
  input: "batch_normalization_3/Cast"
  input: "batch_normalization_3/sub"
  attr {
    key: "T"
    value {
      type: DT_FLOAT
    }
  }
}
node {
  name: "batch_normalization_3/mul"
  op: "Mul"
  input: "batch_normalization_3/FusedBatchNorm:2"
  input: "batch_normalization_3/truediv"
  attr {
    key: "T"
    value {
      type: DT_FLOAT
    }
  }
}
node {
  name: "batch_normalization_3/AssignMovingAvg/decay"
  op: "Const"
  attr {
    key: "_class"
    value {
      list {
        s: "loc:@batch_normalization_3/moving_mean"
      }
    }
  }
  attr {
    key: "dtype"
    value {
      type: DT_FLOAT
    }
  }
  attr {
    key: "value"
    value {
      tensor {
        dtype: DT_FLOAT
        tensor_shape {
        }
        float_val: 0.009999999776482582
      }
    }
  }
}
node {
  name: "batch_normalization_3/AssignMovingAvg/batch_normalization_3/moving_mean/zeros"
  op: "Const"
  attr {
    key: "_class"
    value {
      list {
        s: "loc:@batch_normalization_3/moving_mean"
      }
    }
  }
  attr {
    key: "dtype"
    value {
      type: DT_FLOAT
    }
  }
  attr {
    key: "value"
    value {
      tensor {
        dtype: DT_FLOAT
        tensor_shape {
          dim {
            size: 32
          }
        }
        float_val: 0.0
      }
    }
  }
}
node {
  name: "batch_normalization_3/moving_mean/biased"
  op: "VariableV2"
  attr {
    key: "_class"
    value {
      list {
        s: "loc:@batch_normalization_3/moving_mean"
      }
    }
  }
  attr {
    key: "container"
    value {
      s: ""
    }
  }
  attr {
    key: "dtype"
    value {
      type: DT_FLOAT
    }
  }
  attr {
    key: "shape"
    value {
      shape {
        dim {
          size: 32
        }
      }
    }
  }
  attr {
    key: "shared_name"
    value {
      s: ""
    }
  }
}
node {
  name: "batch_normalization_3/moving_mean/biased/Assign"
  op: "Assign"
  input: "batch_normalization_3/moving_mean/biased"
  input: "batch_normalization_3/AssignMovingAvg/batch_normalization_3/moving_mean/zeros"
  attr {
    key: "T"
    value {
      type: DT_FLOAT
    }
  }
  attr {
    key: "_class"
    value {
      list {
        s: "loc:@batch_normalization_3/moving_mean"
      }
    }
  }
  attr {
    key: "use_locking"
    value {
      b: true
    }
  }
  attr {
    key: "validate_shape"
    value {
      b: true
    }
  }
}
node {
  name: "batch_normalization_3/moving_mean/biased/read"
  op: "Identity"
  input: "batch_normalization_3/moving_mean/biased"
  attr {
    key: "T"
    value {
      type: DT_FLOAT
    }
  }
  attr {
    key: "_class"
    value {
      list {
        s: "loc:@batch_normalization_3/moving_mean"
      }
    }
  }
}
node {
  name: "batch_normalization_3/moving_mean/local_step/Initializer/zeros"
  op: "Const"
  attr {
    key: "_class"
    value {
      list {
        s: "loc:@batch_normalization_3/moving_mean"
      }
    }
  }
  attr {
    key: "dtype"
    value {
      type: DT_FLOAT
    }
  }
  attr {
    key: "value"
    value {
      tensor {
        dtype: DT_FLOAT
        tensor_shape {
        }
        float_val: 0.0
      }
    }
  }
}
node {
  name: "batch_normalization_3/moving_mean/local_step"
  op: "VariableV2"
  attr {
    key: "_class"
    value {
      list {
        s: "loc:@batch_normalization_3/moving_mean"
      }
    }
  }
  attr {
    key: "container"
    value {
      s: ""
    }
  }
  attr {
    key: "dtype"
    value {
      type: DT_FLOAT
    }
  }
  attr {
    key: "shape"
    value {
      shape {
      }
    }
  }
  attr {
    key: "shared_name"
    value {
      s: ""
    }
  }
}
node {
  name: "batch_normalization_3/moving_mean/local_step/Assign"
  op: "Assign"
  input: "batch_normalization_3/moving_mean/local_step"
  input: "batch_normalization_3/moving_mean/local_step/Initializer/zeros"
  attr {
    key: "T"
    value {
      type: DT_FLOAT
    }
  }
  attr {
    key: "_class"
    value {
      list {
        s: "loc:@batch_normalization_3/moving_mean"
      }
    }
  }
  attr {
    key: "use_locking"
    value {
      b: true
    }
  }
  attr {
    key: "validate_shape"
    value {
      b: true
    }
  }
}
node {
  name: "batch_normalization_3/moving_mean/local_step/read"
  op: "Identity"
  input: "batch_normalization_3/moving_mean/local_step"
  attr {
    key: "T"
    value {
      type: DT_FLOAT
    }
  }
  attr {
    key: "_class"
    value {
      list {
        s: "loc:@batch_normalization_3/moving_mean"
      }
    }
  }
}
node {
  name: "batch_normalization_3/AssignMovingAvg/batch_normalization_3/moving_mean/sub"
  op: "Sub"
  input: "batch_normalization_3/moving_mean/biased/read"
  input: "batch_normalization_3/FusedBatchNorm:1"
  attr {
    key: "T"
    value {
      type: DT_FLOAT
    }
  }
  attr {
    key: "_class"
    value {
      list {
        s: "loc:@batch_normalization_3/moving_mean"
      }
    }
  }
}
node {
  name: "batch_normalization_3/AssignMovingAvg/batch_normalization_3/moving_mean/mul"
  op: "Mul"
  input: "batch_normalization_3/AssignMovingAvg/batch_normalization_3/moving_mean/sub"
  input: "batch_normalization_3/AssignMovingAvg/decay"
  attr {
    key: "T"
    value {
      type: DT_FLOAT
    }
  }
  attr {
    key: "_class"
    value {
      list {
        s: "loc:@batch_normalization_3/moving_mean"
      }
    }
  }
}
node {
  name: "batch_normalization_3/AssignMovingAvg/batch_normalization_3/moving_mean/batch_normalization_3/moving_mean"
  op: "AssignSub"
  input: "batch_normalization_3/moving_mean/biased"
  input: "batch_normalization_3/AssignMovingAvg/batch_normalization_3/moving_mean/mul"
  attr {
    key: "T"
    value {
      type: DT_FLOAT
    }
  }
  attr {
    key: "_class"
    value {
      list {
        s: "loc:@batch_normalization_3/moving_mean"
      }
    }
  }
  attr {
    key: "use_locking"
    value {
      b: false
    }
  }
}
node {
  name: "batch_normalization_3/AssignMovingAvg/batch_normalization_3/moving_mean/AssignAdd/value"
  op: "Const"
  attr {
    key: "_class"
    value {
      list {
        s: "loc:@batch_normalization_3/moving_mean"
      }
    }
  }
  attr {
    key: "dtype"
    value {
      type: DT_FLOAT
    }
  }
  attr {
    key: "value"
    value {
      tensor {
        dtype: DT_FLOAT
        tensor_shape {
        }
        float_val: 1.0
      }
    }
  }
}
node {
  name: "batch_normalization_3/AssignMovingAvg/batch_normalization_3/moving_mean/AssignAdd"
  op: "AssignAdd"
  input: "batch_normalization_3/moving_mean/local_step"
  input: "batch_normalization_3/AssignMovingAvg/batch_normalization_3/moving_mean/AssignAdd/value"
  attr {
    key: "T"
    value {
      type: DT_FLOAT
    }
  }
  attr {
    key: "_class"
    value {
      list {
        s: "loc:@batch_normalization_3/moving_mean"
      }
    }
  }
  attr {
    key: "use_locking"
    value {
      b: false
    }
  }
}
node {
  name: "batch_normalization_3/AssignMovingAvg/batch_normalization_3/moving_mean/read"
  op: "Identity"
  input: "batch_normalization_3/moving_mean/biased"
  input: "^batch_normalization_3/AssignMovingAvg/batch_normalization_3/moving_mean/AssignAdd"
  input: "^batch_normalization_3/AssignMovingAvg/batch_normalization_3/moving_mean/batch_normalization_3/moving_mean"
  attr {
    key: "T"
    value {
      type: DT_FLOAT
    }
  }
  attr {
    key: "_class"
    value {
      list {
        s: "loc:@batch_normalization_3/moving_mean"
      }
    }
  }
}
node {
  name: "batch_normalization_3/AssignMovingAvg/batch_normalization_3/moving_mean/sub_1/x"
  op: "Const"
  input: "^batch_normalization_3/AssignMovingAvg/batch_normalization_3/moving_mean/AssignAdd"
  input: "^batch_normalization_3/AssignMovingAvg/batch_normalization_3/moving_mean/batch_normalization_3/moving_mean"
  attr {
    key: "_class"
    value {
      list {
        s: "loc:@batch_normalization_3/moving_mean"
      }
    }
  }
  attr {
    key: "dtype"
    value {
      type: DT_FLOAT
    }
  }
  attr {
    key: "value"
    value {
      tensor {
        dtype: DT_FLOAT
        tensor_shape {
        }
        float_val: 1.0
      }
    }
  }
}
node {
  name: "batch_normalization_3/AssignMovingAvg/batch_normalization_3/moving_mean/sub_1"
  op: "Sub"
  input: "batch_normalization_3/AssignMovingAvg/batch_normalization_3/moving_mean/sub_1/x"
  input: "batch_normalization_3/AssignMovingAvg/decay"
  attr {
    key: "T"
    value {
      type: DT_FLOAT
    }
  }
  attr {
    key: "_class"
    value {
      list {
        s: "loc:@batch_normalization_3/moving_mean"
      }
    }
  }
}
node {
  name: "batch_normalization_3/AssignMovingAvg/batch_normalization_3/moving_mean/read_1"
  op: "Identity"
  input: "batch_normalization_3/moving_mean/local_step"
  input: "^batch_normalization_3/AssignMovingAvg/batch_normalization_3/moving_mean/AssignAdd"
  input: "^batch_normalization_3/AssignMovingAvg/batch_normalization_3/moving_mean/batch_normalization_3/moving_mean"
  attr {
    key: "T"
    value {
      type: DT_FLOAT
    }
  }
  attr {
    key: "_class"
    value {
      list {
        s: "loc:@batch_normalization_3/moving_mean"
      }
    }
  }
}
node {
  name: "batch_normalization_3/AssignMovingAvg/batch_normalization_3/moving_mean/Pow"
  op: "Pow"
  input: "batch_normalization_3/AssignMovingAvg/batch_normalization_3/moving_mean/sub_1"
  input: "batch_normalization_3/AssignMovingAvg/batch_normalization_3/moving_mean/read_1"
  attr {
    key: "T"
    value {
      type: DT_FLOAT
    }
  }
  attr {
    key: "_class"
    value {
      list {
        s: "loc:@batch_normalization_3/moving_mean"
      }
    }
  }
}
node {
  name: "batch_normalization_3/AssignMovingAvg/batch_normalization_3/moving_mean/sub_2/x"
  op: "Const"
  input: "^batch_normalization_3/AssignMovingAvg/batch_normalization_3/moving_mean/AssignAdd"
  input: "^batch_normalization_3/AssignMovingAvg/batch_normalization_3/moving_mean/batch_normalization_3/moving_mean"
  attr {
    key: "_class"
    value {
      list {
        s: "loc:@batch_normalization_3/moving_mean"
      }
    }
  }
  attr {
    key: "dtype"
    value {
      type: DT_FLOAT
    }
  }
  attr {
    key: "value"
    value {
      tensor {
        dtype: DT_FLOAT
        tensor_shape {
        }
        float_val: 1.0
      }
    }
  }
}
node {
  name: "batch_normalization_3/AssignMovingAvg/batch_normalization_3/moving_mean/sub_2"
  op: "Sub"
  input: "batch_normalization_3/AssignMovingAvg/batch_normalization_3/moving_mean/sub_2/x"
  input: "batch_normalization_3/AssignMovingAvg/batch_normalization_3/moving_mean/Pow"
  attr {
    key: "T"
    value {
      type: DT_FLOAT
    }
  }
  attr {
    key: "_class"
    value {
      list {
        s: "loc:@batch_normalization_3/moving_mean"
      }
    }
  }
}
node {
  name: "batch_normalization_3/AssignMovingAvg/batch_normalization_3/moving_mean/truediv"
  op: "RealDiv"
  input: "batch_normalization_3/AssignMovingAvg/batch_normalization_3/moving_mean/read"
  input: "batch_normalization_3/AssignMovingAvg/batch_normalization_3/moving_mean/sub_2"
  attr {
    key: "T"
    value {
      type: DT_FLOAT
    }
  }
  attr {
    key: "_class"
    value {
      list {
        s: "loc:@batch_normalization_3/moving_mean"
      }
    }
  }
}
node {
  name: "batch_normalization_3/AssignMovingAvg/batch_normalization_3/moving_mean/sub_3"
  op: "Sub"
  input: "batch_normalization_3/moving_mean/read"
  input: "batch_normalization_3/AssignMovingAvg/batch_normalization_3/moving_mean/truediv"
  attr {
    key: "T"
    value {
      type: DT_FLOAT
    }
  }
  attr {
    key: "_class"
    value {
      list {
        s: "loc:@batch_normalization_3/moving_mean"
      }
    }
  }
}
node {
  name: "batch_normalization_3/AssignMovingAvg"
  op: "AssignSub"
  input: "batch_normalization_3/moving_mean"
  input: "batch_normalization_3/AssignMovingAvg/batch_normalization_3/moving_mean/sub_3"
  attr {
    key: "T"
    value {
      type: DT_FLOAT
    }
  }
  attr {
    key: "_class"
    value {
      list {
        s: "loc:@batch_normalization_3/moving_mean"
      }
    }
  }
  attr {
    key: "use_locking"
    value {
      b: false
    }
  }
}
node {
  name: "batch_normalization_3/AssignMovingAvg_1/decay"
  op: "Const"
  attr {
    key: "_class"
    value {
      list {
        s: "loc:@batch_normalization_3/moving_variance"
      }
    }
  }
  attr {
    key: "dtype"
    value {
      type: DT_FLOAT
    }
  }
  attr {
    key: "value"
    value {
      tensor {
        dtype: DT_FLOAT
        tensor_shape {
        }
        float_val: 0.009999999776482582
      }
    }
  }
}
node {
  name: "batch_normalization_3/AssignMovingAvg_1/batch_normalization_3/moving_variance/zeros"
  op: "Const"
  attr {
    key: "_class"
    value {
      list {
        s: "loc:@batch_normalization_3/moving_variance"
      }
    }
  }
  attr {
    key: "dtype"
    value {
      type: DT_FLOAT
    }
  }
  attr {
    key: "value"
    value {
      tensor {
        dtype: DT_FLOAT
        tensor_shape {
          dim {
            size: 32
          }
        }
        float_val: 0.0
      }
    }
  }
}
node {
  name: "batch_normalization_3/moving_variance/biased"
  op: "VariableV2"
  attr {
    key: "_class"
    value {
      list {
        s: "loc:@batch_normalization_3/moving_variance"
      }
    }
  }
  attr {
    key: "container"
    value {
      s: ""
    }
  }
  attr {
    key: "dtype"
    value {
      type: DT_FLOAT
    }
  }
  attr {
    key: "shape"
    value {
      shape {
        dim {
          size: 32
        }
      }
    }
  }
  attr {
    key: "shared_name"
    value {
      s: ""
    }
  }
}
node {
  name: "batch_normalization_3/moving_variance/biased/Assign"
  op: "Assign"
  input: "batch_normalization_3/moving_variance/biased"
  input: "batch_normalization_3/AssignMovingAvg_1/batch_normalization_3/moving_variance/zeros"
  attr {
    key: "T"
    value {
      type: DT_FLOAT
    }
  }
  attr {
    key: "_class"
    value {
      list {
        s: "loc:@batch_normalization_3/moving_variance"
      }
    }
  }
  attr {
    key: "use_locking"
    value {
      b: true
    }
  }
  attr {
    key: "validate_shape"
    value {
      b: true
    }
  }
}
node {
  name: "batch_normalization_3/moving_variance/biased/read"
  op: "Identity"
  input: "batch_normalization_3/moving_variance/biased"
  attr {
    key: "T"
    value {
      type: DT_FLOAT
    }
  }
  attr {
    key: "_class"
    value {
      list {
        s: "loc:@batch_normalization_3/moving_variance"
      }
    }
  }
}
node {
  name: "batch_normalization_3/moving_variance/local_step/Initializer/zeros"
  op: "Const"
  attr {
    key: "_class"
    value {
      list {
        s: "loc:@batch_normalization_3/moving_variance"
      }
    }
  }
  attr {
    key: "dtype"
    value {
      type: DT_FLOAT
    }
  }
  attr {
    key: "value"
    value {
      tensor {
        dtype: DT_FLOAT
        tensor_shape {
        }
        float_val: 0.0
      }
    }
  }
}
node {
  name: "batch_normalization_3/moving_variance/local_step"
  op: "VariableV2"
  attr {
    key: "_class"
    value {
      list {
        s: "loc:@batch_normalization_3/moving_variance"
      }
    }
  }
  attr {
    key: "container"
    value {
      s: ""
    }
  }
  attr {
    key: "dtype"
    value {
      type: DT_FLOAT
    }
  }
  attr {
    key: "shape"
    value {
      shape {
      }
    }
  }
  attr {
    key: "shared_name"
    value {
      s: ""
    }
  }
}
node {
  name: "batch_normalization_3/moving_variance/local_step/Assign"
  op: "Assign"
  input: "batch_normalization_3/moving_variance/local_step"
  input: "batch_normalization_3/moving_variance/local_step/Initializer/zeros"
  attr {
    key: "T"
    value {
      type: DT_FLOAT
    }
  }
  attr {
    key: "_class"
    value {
      list {
        s: "loc:@batch_normalization_3/moving_variance"
      }
    }
  }
  attr {
    key: "use_locking"
    value {
      b: true
    }
  }
  attr {
    key: "validate_shape"
    value {
      b: true
    }
  }
}
node {
  name: "batch_normalization_3/moving_variance/local_step/read"
  op: "Identity"
  input: "batch_normalization_3/moving_variance/local_step"
  attr {
    key: "T"
    value {
      type: DT_FLOAT
    }
  }
  attr {
    key: "_class"
    value {
      list {
        s: "loc:@batch_normalization_3/moving_variance"
      }
    }
  }
}
node {
  name: "batch_normalization_3/AssignMovingAvg_1/batch_normalization_3/moving_variance/sub"
  op: "Sub"
  input: "batch_normalization_3/moving_variance/biased/read"
  input: "batch_normalization_3/mul"
  attr {
    key: "T"
    value {
      type: DT_FLOAT
    }
  }
  attr {
    key: "_class"
    value {
      list {
        s: "loc:@batch_normalization_3/moving_variance"
      }
    }
  }
}
node {
  name: "batch_normalization_3/AssignMovingAvg_1/batch_normalization_3/moving_variance/mul"
  op: "Mul"
  input: "batch_normalization_3/AssignMovingAvg_1/batch_normalization_3/moving_variance/sub"
  input: "batch_normalization_3/AssignMovingAvg_1/decay"
  attr {
    key: "T"
    value {
      type: DT_FLOAT
    }
  }
  attr {
    key: "_class"
    value {
      list {
        s: "loc:@batch_normalization_3/moving_variance"
      }
    }
  }
}
node {
  name: "batch_normalization_3/AssignMovingAvg_1/batch_normalization_3/moving_variance/batch_normalization_3/moving_variance"
  op: "AssignSub"
  input: "batch_normalization_3/moving_variance/biased"
  input: "batch_normalization_3/AssignMovingAvg_1/batch_normalization_3/moving_variance/mul"
  attr {
    key: "T"
    value {
      type: DT_FLOAT
    }
  }
  attr {
    key: "_class"
    value {
      list {
        s: "loc:@batch_normalization_3/moving_variance"
      }
    }
  }
  attr {
    key: "use_locking"
    value {
      b: false
    }
  }
}
node {
  name: "batch_normalization_3/AssignMovingAvg_1/batch_normalization_3/moving_variance/AssignAdd/value"
  op: "Const"
  attr {
    key: "_class"
    value {
      list {
        s: "loc:@batch_normalization_3/moving_variance"
      }
    }
  }
  attr {
    key: "dtype"
    value {
      type: DT_FLOAT
    }
  }
  attr {
    key: "value"
    value {
      tensor {
        dtype: DT_FLOAT
        tensor_shape {
        }
        float_val: 1.0
      }
    }
  }
}
node {
  name: "batch_normalization_3/AssignMovingAvg_1/batch_normalization_3/moving_variance/AssignAdd"
  op: "AssignAdd"
  input: "batch_normalization_3/moving_variance/local_step"
  input: "batch_normalization_3/AssignMovingAvg_1/batch_normalization_3/moving_variance/AssignAdd/value"
  attr {
    key: "T"
    value {
      type: DT_FLOAT
    }
  }
  attr {
    key: "_class"
    value {
      list {
        s: "loc:@batch_normalization_3/moving_variance"
      }
    }
  }
  attr {
    key: "use_locking"
    value {
      b: false
    }
  }
}
node {
  name: "batch_normalization_3/AssignMovingAvg_1/batch_normalization_3/moving_variance/read"
  op: "Identity"
  input: "batch_normalization_3/moving_variance/biased"
  input: "^batch_normalization_3/AssignMovingAvg_1/batch_normalization_3/moving_variance/AssignAdd"
  input: "^batch_normalization_3/AssignMovingAvg_1/batch_normalization_3/moving_variance/batch_normalization_3/moving_variance"
  attr {
    key: "T"
    value {
      type: DT_FLOAT
    }
  }
  attr {
    key: "_class"
    value {
      list {
        s: "loc:@batch_normalization_3/moving_variance"
      }
    }
  }
}
node {
  name: "batch_normalization_3/AssignMovingAvg_1/batch_normalization_3/moving_variance/sub_1/x"
  op: "Const"
  input: "^batch_normalization_3/AssignMovingAvg_1/batch_normalization_3/moving_variance/AssignAdd"
  input: "^batch_normalization_3/AssignMovingAvg_1/batch_normalization_3/moving_variance/batch_normalization_3/moving_variance"
  attr {
    key: "_class"
    value {
      list {
        s: "loc:@batch_normalization_3/moving_variance"
      }
    }
  }
  attr {
    key: "dtype"
    value {
      type: DT_FLOAT
    }
  }
  attr {
    key: "value"
    value {
      tensor {
        dtype: DT_FLOAT
        tensor_shape {
        }
        float_val: 1.0
      }
    }
  }
}
node {
  name: "batch_normalization_3/AssignMovingAvg_1/batch_normalization_3/moving_variance/sub_1"
  op: "Sub"
  input: "batch_normalization_3/AssignMovingAvg_1/batch_normalization_3/moving_variance/sub_1/x"
  input: "batch_normalization_3/AssignMovingAvg_1/decay"
  attr {
    key: "T"
    value {
      type: DT_FLOAT
    }
  }
  attr {
    key: "_class"
    value {
      list {
        s: "loc:@batch_normalization_3/moving_variance"
      }
    }
  }
}
node {
  name: "batch_normalization_3/AssignMovingAvg_1/batch_normalization_3/moving_variance/read_1"
  op: "Identity"
  input: "batch_normalization_3/moving_variance/local_step"
  input: "^batch_normalization_3/AssignMovingAvg_1/batch_normalization_3/moving_variance/AssignAdd"
  input: "^batch_normalization_3/AssignMovingAvg_1/batch_normalization_3/moving_variance/batch_normalization_3/moving_variance"
  attr {
    key: "T"
    value {
      type: DT_FLOAT
    }
  }
  attr {
    key: "_class"
    value {
      list {
        s: "loc:@batch_normalization_3/moving_variance"
      }
    }
  }
}
node {
  name: "batch_normalization_3/AssignMovingAvg_1/batch_normalization_3/moving_variance/Pow"
  op: "Pow"
  input: "batch_normalization_3/AssignMovingAvg_1/batch_normalization_3/moving_variance/sub_1"
  input: "batch_normalization_3/AssignMovingAvg_1/batch_normalization_3/moving_variance/read_1"
  attr {
    key: "T"
    value {
      type: DT_FLOAT
    }
  }
  attr {
    key: "_class"
    value {
      list {
        s: "loc:@batch_normalization_3/moving_variance"
      }
    }
  }
}
node {
  name: "batch_normalization_3/AssignMovingAvg_1/batch_normalization_3/moving_variance/sub_2/x"
  op: "Const"
  input: "^batch_normalization_3/AssignMovingAvg_1/batch_normalization_3/moving_variance/AssignAdd"
  input: "^batch_normalization_3/AssignMovingAvg_1/batch_normalization_3/moving_variance/batch_normalization_3/moving_variance"
  attr {
    key: "_class"
    value {
      list {
        s: "loc:@batch_normalization_3/moving_variance"
      }
    }
  }
  attr {
    key: "dtype"
    value {
      type: DT_FLOAT
    }
  }
  attr {
    key: "value"
    value {
      tensor {
        dtype: DT_FLOAT
        tensor_shape {
        }
        float_val: 1.0
      }
    }
  }
}
node {
  name: "batch_normalization_3/AssignMovingAvg_1/batch_normalization_3/moving_variance/sub_2"
  op: "Sub"
  input: "batch_normalization_3/AssignMovingAvg_1/batch_normalization_3/moving_variance/sub_2/x"
  input: "batch_normalization_3/AssignMovingAvg_1/batch_normalization_3/moving_variance/Pow"
  attr {
    key: "T"
    value {
      type: DT_FLOAT
    }
  }
  attr {
    key: "_class"
    value {
      list {
        s: "loc:@batch_normalization_3/moving_variance"
      }
    }
  }
}
node {
  name: "batch_normalization_3/AssignMovingAvg_1/batch_normalization_3/moving_variance/truediv"
  op: "RealDiv"
  input: "batch_normalization_3/AssignMovingAvg_1/batch_normalization_3/moving_variance/read"
  input: "batch_normalization_3/AssignMovingAvg_1/batch_normalization_3/moving_variance/sub_2"
  attr {
    key: "T"
    value {
      type: DT_FLOAT
    }
  }
  attr {
    key: "_class"
    value {
      list {
        s: "loc:@batch_normalization_3/moving_variance"
      }
    }
  }
}
node {
  name: "batch_normalization_3/AssignMovingAvg_1/batch_normalization_3/moving_variance/sub_3"
  op: "Sub"
  input: "batch_normalization_3/moving_variance/read"
  input: "batch_normalization_3/AssignMovingAvg_1/batch_normalization_3/moving_variance/truediv"
  attr {
    key: "T"
    value {
      type: DT_FLOAT
    }
  }
  attr {
    key: "_class"
    value {
      list {
        s: "loc:@batch_normalization_3/moving_variance"
      }
    }
  }
}
node {
  name: "batch_normalization_3/AssignMovingAvg_1"
  op: "AssignSub"
  input: "batch_normalization_3/moving_variance"
  input: "batch_normalization_3/AssignMovingAvg_1/batch_normalization_3/moving_variance/sub_3"
  attr {
    key: "T"
    value {
      type: DT_FLOAT
    }
  }
  attr {
    key: "_class"
    value {
      list {
        s: "loc:@batch_normalization_3/moving_variance"
      }
    }
  }
  attr {
    key: "use_locking"
    value {
      b: false
    }
  }
}
node {
  name: "batch_normalization_3/FusedBatchNorm_1"
  op: "FusedBatchNorm"
  input: "conv2d_3/convolution"
  input: "batch_normalization_3/gamma/read"
  input: "batch_normalization_3/beta/read"
  input: "batch_normalization_3/moving_mean/read"
  input: "batch_normalization_3/moving_variance/read"
  attr {
    key: "T"
    value {
      type: DT_FLOAT
    }
  }
  attr {
    key: "data_format"
    value {
      s: "NHWC"
    }
  }
  attr {
    key: "epsilon"
    value {
      f: 0.0010000000474974513
    }
  }
  attr {
    key: "is_training"
    value {
      b: false
    }
  }
}
node {
  name: "leaky_re_lu_3/LeakyRelu/alpha"
  op: "Const"
  attr {
    key: "dtype"
    value {
      type: DT_FLOAT
    }
  }
  attr {
    key: "value"
    value {
      tensor {
        dtype: DT_FLOAT
        tensor_shape {
        }
        float_val: 0.10000000149011612
      }
    }
  }
}
node {
  name: "leaky_re_lu_3/LeakyRelu/mul"
  op: "Mul"
  input: "leaky_re_lu_3/LeakyRelu/alpha"
  input: "batch_normalization_3/FusedBatchNorm_1"
  attr {
    key: "T"
    value {
      type: DT_FLOAT
    }
  }
}
node {
  name: "leaky_re_lu_3/LeakyRelu"
  op: "Maximum"
  input: "leaky_re_lu_3/LeakyRelu/mul"
  input: "batch_normalization_3/FusedBatchNorm_1"
  attr {
    key: "T"
    value {
      type: DT_FLOAT
    }
  }
}
node {
  name: "conv2d_4/random_uniform/shape"
  op: "Const"
  attr {
    key: "dtype"
    value {
      type: DT_INT32
    }
  }
  attr {
    key: "value"
    value {
      tensor {
        dtype: DT_INT32
        tensor_shape {
          dim {
            size: 4
          }
        }
        tensor_content: "\003\000\000\000\003\000\000\000 \000\000\000@\000\000\000"
      }
    }
  }
}
node {
  name: "conv2d_4/random_uniform/min"
  op: "Const"
  attr {
    key: "dtype"
    value {
      type: DT_FLOAT
    }
  }
  attr {
    key: "value"
    value {
      tensor {
        dtype: DT_FLOAT
        tensor_shape {
        }
        float_val: -0.0833333358168602
      }
    }
  }
}
node {
  name: "conv2d_4/random_uniform/max"
  op: "Const"
  attr {
    key: "dtype"
    value {
      type: DT_FLOAT
    }
  }
  attr {
    key: "value"
    value {
      tensor {
        dtype: DT_FLOAT
        tensor_shape {
        }
        float_val: 0.0833333358168602
      }
    }
  }
}
node {
  name: "conv2d_4/random_uniform/RandomUniform"
  op: "RandomUniform"
  input: "conv2d_4/random_uniform/shape"
  attr {
    key: "T"
    value {
      type: DT_INT32
    }
  }
  attr {
    key: "dtype"
    value {
      type: DT_FLOAT
    }
  }
  attr {
    key: "seed"
    value {
      i: 87654321
    }
  }
  attr {
    key: "seed2"
    value {
      i: 3639678
    }
  }
}
node {
  name: "conv2d_4/random_uniform/sub"
  op: "Sub"
  input: "conv2d_4/random_uniform/max"
  input: "conv2d_4/random_uniform/min"
  attr {
    key: "T"
    value {
      type: DT_FLOAT
    }
  }
}
node {
  name: "conv2d_4/random_uniform/mul"
  op: "Mul"
  input: "conv2d_4/random_uniform/RandomUniform"
  input: "conv2d_4/random_uniform/sub"
  attr {
    key: "T"
    value {
      type: DT_FLOAT
    }
  }
}
node {
  name: "conv2d_4/random_uniform"
  op: "Add"
  input: "conv2d_4/random_uniform/mul"
  input: "conv2d_4/random_uniform/min"
  attr {
    key: "T"
    value {
      type: DT_FLOAT
    }
  }
}
node {
  name: "conv2d_4/kernel"
  op: "VariableV2"
  attr {
    key: "container"
    value {
      s: ""
    }
  }
  attr {
    key: "dtype"
    value {
      type: DT_FLOAT
    }
  }
  attr {
    key: "shape"
    value {
      shape {
        dim {
          size: 3
        }
        dim {
          size: 3
        }
        dim {
          size: 32
        }
        dim {
          size: 64
        }
      }
    }
  }
  attr {
    key: "shared_name"
    value {
      s: ""
    }
  }
}
node {
  name: "conv2d_4/kernel/Assign"
  op: "Assign"
  input: "conv2d_4/kernel"
  input: "conv2d_4/random_uniform"
  attr {
    key: "T"
    value {
      type: DT_FLOAT
    }
  }
  attr {
    key: "_class"
    value {
      list {
        s: "loc:@conv2d_4/kernel"
      }
    }
  }
  attr {
    key: "use_locking"
    value {
      b: true
    }
  }
  attr {
    key: "validate_shape"
    value {
      b: true
    }
  }
}
node {
  name: "conv2d_4/kernel/read"
  op: "Identity"
  input: "conv2d_4/kernel"
  attr {
    key: "T"
    value {
      type: DT_FLOAT
    }
  }
  attr {
    key: "_class"
    value {
      list {
        s: "loc:@conv2d_4/kernel"
      }
    }
  }
}
node {
  name: "conv2d_4/weight_regularizer/Square"
  op: "Square"
  input: "conv2d_4/kernel/read"
  attr {
    key: "T"
    value {
      type: DT_FLOAT
    }
  }
}
node {
  name: "conv2d_4/weight_regularizer/mul/x"
  op: "Const"
  attr {
    key: "dtype"
    value {
      type: DT_FLOAT
    }
  }
  attr {
    key: "value"
    value {
      tensor {
        dtype: DT_FLOAT
        tensor_shape {
        }
        float_val: 0.0005000000237487257
      }
    }
  }
}
node {
  name: "conv2d_4/weight_regularizer/mul"
  op: "Mul"
  input: "conv2d_4/weight_regularizer/mul/x"
  input: "conv2d_4/weight_regularizer/Square"
  attr {
    key: "T"
    value {
      type: DT_FLOAT
    }
  }
}
node {
…
      list {
        s: "loc:@batch_normalization_70/moving_variance"
      }
    }
  }
  attr {
    key: "dtype"
    value {
      type: DT_FLOAT
    }
  }
}
node {
  name: "IsVariableInitialized_606"
  op: "IsVariableInitialized"
  input: "batch_normalization_70/moving_variance/local_step"
  attr {
    key: "_class"
    value {
      list {
        s: "loc:@batch_normalization_70/moving_variance"
      }
    }
  }
  attr {
    key: "dtype"
    value {
      type: DT_FLOAT
    }
  }
}
node {
  name: "IsVariableInitialized_607"
  op: "IsVariableInitialized"
  input: "conv2d_73/kernel"
  attr {
    key: "_class"
    value {
      list {
        s: "loc:@conv2d_73/kernel"
      }
    }
  }
  attr {
    key: "dtype"
    value {
      type: DT_FLOAT
    }
  }
}
node {
  name: "IsVariableInitialized_608"
  op: "IsVariableInitialized"
  input: "batch_normalization_71/gamma"
  attr {
    key: "_class"
    value {
      list {
        s: "loc:@batch_normalization_71/gamma"
      }
    }
  }
  attr {
    key: "dtype"
    value {
      type: DT_FLOAT
    }
  }
}
node {
  name: "IsVariableInitialized_609"
  op: "IsVariableInitialized"
  input: "batch_normalization_71/beta"
  attr {
    key: "_class"
    value {
      list {
        s: "loc:@batch_normalization_71/beta"
      }
    }
  }
  attr {
    key: "dtype"
    value {
      type: DT_FLOAT
    }
  }
}
node {
  name: "IsVariableInitialized_610"
  op: "IsVariableInitialized"
  input: "batch_normalization_71/moving_mean"
  attr {
    key: "_class"
    value {
      list {
        s: "loc:@batch_normalization_71/moving_mean"
      }
    }
  }
  attr {
    key: "dtype"
    value {
      type: DT_FLOAT
    }
  }
}
node {
  name: "IsVariableInitialized_611"
  op: "IsVariableInitialized"
  input: "batch_normalization_71/moving_variance"
  attr {
    key: "_class"
    value {
      list {
        s: "loc:@batch_normalization_71/moving_variance"
      }
    }
  }
  attr {
    key: "dtype"
    value {
      type: DT_FLOAT
    }
  }
}
node {
  name: "IsVariableInitialized_612"
  op: "IsVariableInitialized"
  input: "batch_normalization_71/moving_mean/biased"
  attr {
    key: "_class"
    value {
      list {
        s: "loc:@batch_normalization_71/moving_mean"
      }
    }
  }
  attr {
    key: "dtype"
    value {
      type: DT_FLOAT
    }
  }
}
node {
  name: "IsVariableInitialized_613"
  op: "IsVariableInitialized"
  input: "batch_normalization_71/moving_mean/local_step"
  attr {
    key: "_class"
    value {
      list {
        s: "loc:@batch_normalization_71/moving_mean"
      }
    }
  }
  attr {
    key: "dtype"
    value {
      type: DT_FLOAT
    }
  }
}
node {
  name: "IsVariableInitialized_614"
  op: "IsVariableInitialized"
  input: "batch_normalization_71/moving_variance/biased"
  attr {
    key: "_class"
    value {
      list {
        s: "loc:@batch_normalization_71/moving_variance"
      }
    }
  }
  attr {
    key: "dtype"
    value {
      type: DT_FLOAT
    }
  }
}
node {
  name: "IsVariableInitialized_615"
  op: "IsVariableInitialized"
  input: "batch_normalization_71/moving_variance/local_step"
  attr {
    key: "_class"
    value {
      list {
        s: "loc:@batch_normalization_71/moving_variance"
      }
    }
  }
  attr {
    key: "dtype"
    value {
      type: DT_FLOAT
    }
  }
}
node {
  name: "IsVariableInitialized_616"
  op: "IsVariableInitialized"
  input: "conv2d_58/kernel"
  attr {
    key: "_class"
    value {
      list {
        s: "loc:@conv2d_58/kernel"
      }
    }
  }
  attr {
    key: "dtype"
    value {
      type: DT_FLOAT
    }
  }
}
node {
  name: "IsVariableInitialized_617"
  op: "IsVariableInitialized"
  input: "conv2d_66/kernel"
  attr {
    key: "_class"
    value {
      list {
        s: "loc:@conv2d_66/kernel"
      }
    }
  }
  attr {
    key: "dtype"
    value {
      type: DT_FLOAT
    }
  }
}
node {
  name: "IsVariableInitialized_618"
  op: "IsVariableInitialized"
  input: "conv2d_74/kernel"
  attr {
    key: "_class"
    value {
      list {
        s: "loc:@conv2d_74/kernel"
      }
    }
  }
  attr {
    key: "dtype"
    value {
      type: DT_FLOAT
    }
  }
}
node {
  name: "IsVariableInitialized_619"
  op: "IsVariableInitialized"
  input: "batch_normalization_58/gamma"
  attr {
    key: "_class"
    value {
      list {
        s: "loc:@batch_normalization_58/gamma"
      }
    }
  }
  attr {
    key: "dtype"
    value {
      type: DT_FLOAT
    }
  }
}
node {
  name: "IsVariableInitialized_620"
  op: "IsVariableInitialized"
  input: "batch_normalization_58/beta"
  attr {
    key: "_class"
    value {
      list {
        s: "loc:@batch_normalization_58/beta"
      }
    }
  }
  attr {
    key: "dtype"
    value {
      type: DT_FLOAT
    }
  }
}
node {
  name: "IsVariableInitialized_621"
  op: "IsVariableInitialized"
  input: "batch_normalization_58/moving_mean"
  attr {
    key: "_class"
    value {
      list {
        s: "loc:@batch_normalization_58/moving_mean"
      }
    }
  }
  attr {
    key: "dtype"
    value {
      type: DT_FLOAT
    }
  }
}
node {
  name: "IsVariableInitialized_622"
  op: "IsVariableInitialized"
  input: "batch_normalization_58/moving_variance"
  attr {
    key: "_class"
    value {
      list {
        s: "loc:@batch_normalization_58/moving_variance"
      }
    }
  }
  attr {
    key: "dtype"
    value {
      type: DT_FLOAT
    }
  }
}
node {
  name: "IsVariableInitialized_623"
  op: "IsVariableInitialized"
  input: "batch_normalization_58/moving_mean/biased"
  attr {
    key: "_class"
    value {
      list {
        s: "loc:@batch_normalization_58/moving_mean"
      }
    }
  }
  attr {
    key: "dtype"
    value {
      type: DT_FLOAT
    }
  }
}
node {
  name: "IsVariableInitialized_624"
  op: "IsVariableInitialized"
  input: "batch_normalization_58/moving_mean/local_step"
  attr {
    key: "_class"
    value {
      list {
        s: "loc:@batch_normalization_58/moving_mean"
      }
    }
  }
  attr {
    key: "dtype"
    value {
      type: DT_FLOAT
    }
  }
}
node {
  name: "IsVariableInitialized_625"
  op: "IsVariableInitialized"
  input: "batch_normalization_58/moving_variance/biased"
  attr {
    key: "_class"
    value {
      list {
        s: "loc:@batch_normalization_58/moving_variance"
      }
    }
  }
  attr {
    key: "dtype"
    value {
      type: DT_FLOAT
    }
  }
}
node {
  name: "IsVariableInitialized_626"
  op: "IsVariableInitialized"
  input: "batch_normalization_58/moving_variance/local_step"
  attr {
    key: "_class"
    value {
      list {
        s: "loc:@batch_normalization_58/moving_variance"
      }
    }
  }
  attr {
    key: "dtype"
    value {
      type: DT_FLOAT
    }
  }
}
node {
  name: "IsVariableInitialized_627"
  op: "IsVariableInitialized"
  input: "batch_normalization_65/gamma"
  attr {
    key: "_class"
    value {
      list {
        s: "loc:@batch_normalization_65/gamma"
      }
    }
  }
  attr {
    key: "dtype"
    value {
      type: DT_FLOAT
    }
  }
}
node {
  name: "IsVariableInitialized_628"
  op: "IsVariableInitialized"
  input: "batch_normalization_65/beta"
  attr {
    key: "_class"
    value {
      list {
        s: "loc:@batch_normalization_65/beta"
      }
    }
  }
  attr {
    key: "dtype"
    value {
      type: DT_FLOAT
    }
  }
}
node {
  name: "IsVariableInitialized_629"
  op: "IsVariableInitialized"
  input: "batch_normalization_65/moving_mean"
  attr {
    key: "_class"
    value {
      list {
        s: "loc:@batch_normalization_65/moving_mean"
      }
    }
  }
  attr {
    key: "dtype"
    value {
      type: DT_FLOAT
    }
  }
}
node {
  name: "IsVariableInitialized_630"
  op: "IsVariableInitialized"
  input: "batch_normalization_65/moving_variance"
  attr {
    key: "_class"
    value {
      list {
        s: "loc:@batch_normalization_65/moving_variance"
      }
    }
  }
  attr {
    key: "dtype"
    value {
      type: DT_FLOAT
    }
  }
}
node {
  name: "IsVariableInitialized_631"
  op: "IsVariableInitialized"
  input: "batch_normalization_65/moving_mean/biased"
  attr {
    key: "_class"
    value {
      list {
        s: "loc:@batch_normalization_65/moving_mean"
      }
    }
  }
  attr {
    key: "dtype"
    value {
      type: DT_FLOAT
    }
  }
}
node {
  name: "IsVariableInitialized_632"
  op: "IsVariableInitialized"
  input: "batch_normalization_65/moving_mean/local_step"
  attr {
    key: "_class"
    value {
      list {
        s: "loc:@batch_normalization_65/moving_mean"
      }
    }
  }
  attr {
    key: "dtype"
    value {
      type: DT_FLOAT
    }
  }
}
node {
  name: "IsVariableInitialized_633"
  op: "IsVariableInitialized"
  input: "batch_normalization_65/moving_variance/biased"
  attr {
    key: "_class"
    value {
      list {
        s: "loc:@batch_normalization_65/moving_variance"
      }
    }
  }
  attr {
    key: "dtype"
    value {
      type: DT_FLOAT
    }
  }
}
node {
  name: "IsVariableInitialized_634"
  op: "IsVariableInitialized"
  input: "batch_normalization_65/moving_variance/local_step"
  attr {
    key: "_class"
    value {
      list {
        s: "loc:@batch_normalization_65/moving_variance"
      }
    }
  }
  attr {
    key: "dtype"
    value {
      type: DT_FLOAT
    }
  }
}
node {
  name: "IsVariableInitialized_635"
  op: "IsVariableInitialized"
  input: "batch_normalization_72/gamma"
  attr {
    key: "_class"
    value {
      list {
        s: "loc:@batch_normalization_72/gamma"
      }
    }
  }
  attr {
    key: "dtype"
    value {
      type: DT_FLOAT
    }
  }
}
node {
  name: "IsVariableInitialized_636"
  op: "IsVariableInitialized"
  input: "batch_normalization_72/beta"
  attr {
    key: "_class"
    value {
      list {
        s: "loc:@batch_normalization_72/beta"
      }
    }
  }
  attr {
    key: "dtype"
    value {
      type: DT_FLOAT
    }
  }
}
node {
  name: "IsVariableInitialized_637"
  op: "IsVariableInitialized"
  input: "batch_normalization_72/moving_mean"
  attr {
    key: "_class"
    value {
      list {
        s: "loc:@batch_normalization_72/moving_mean"
      }
    }
  }
  attr {
    key: "dtype"
    value {
      type: DT_FLOAT
    }
  }
}
node {
  name: "IsVariableInitialized_638"
  op: "IsVariableInitialized"
  input: "batch_normalization_72/moving_variance"
  attr {
    key: "_class"
    value {
      list {
        s: "loc:@batch_normalization_72/moving_variance"
      }
    }
  }
  attr {
    key: "dtype"
    value {
      type: DT_FLOAT
    }
  }
}
node {
  name: "IsVariableInitialized_639"
  op: "IsVariableInitialized"
  input: "batch_normalization_72/moving_mean/biased"
  attr {
    key: "_class"
    value {
      list {
        s: "loc:@batch_normalization_72/moving_mean"
      }
    }
  }
  attr {
    key: "dtype"
    value {
      type: DT_FLOAT
    }
  }
}
node {
  name: "IsVariableInitialized_640"
  op: "IsVariableInitialized"
  input: "batch_normalization_72/moving_mean/local_step"
  attr {
    key: "_class"
    value {
      list {
        s: "loc:@batch_normalization_72/moving_mean"
      }
    }
  }
  attr {
    key: "dtype"
    value {
      type: DT_FLOAT
    }
  }
}
node {
  name: "IsVariableInitialized_641"
  op: "IsVariableInitialized"
  input: "batch_normalization_72/moving_variance/biased"
  attr {
    key: "_class"
    value {
      list {
        s: "loc:@batch_normalization_72/moving_variance"
      }
    }
  }
  attr {
    key: "dtype"
    value {
      type: DT_FLOAT
    }
  }
}
node {
  name: "IsVariableInitialized_642"
  op: "IsVariableInitialized"
  input: "batch_normalization_72/moving_variance/local_step"
  attr {
    key: "_class"
    value {
      list {
        s: "loc:@batch_normalization_72/moving_variance"
      }
    }
  }
  attr {
    key: "dtype"
    value {
      type: DT_FLOAT
    }
  }
}
node {
  name: "IsVariableInitialized_643"
  op: "IsVariableInitialized"
  input: "conv2d_59/kernel"
  attr {
    key: "_class"
    value {
      list {
        s: "loc:@conv2d_59/kernel"
      }
    }
  }
  attr {
    key: "dtype"
    value {
      type: DT_FLOAT
    }
  }
}
node {
  name: "IsVariableInitialized_644"
  op: "IsVariableInitialized"
  input: "conv2d_59/bias"
  attr {
    key: "_class"
    value {
      list {
        s: "loc:@conv2d_59/bias"
      }
    }
  }
  attr {
    key: "dtype"
    value {
      type: DT_FLOAT
    }
  }
}
node {
  name: "IsVariableInitialized_645"
  op: "IsVariableInitialized"
  input: "conv2d_67/kernel"
  attr {
    key: "_class"
    value {
      list {
        s: "loc:@conv2d_67/kernel"
      }
    }
  }
  attr {
    key: "dtype"
    value {
      type: DT_FLOAT
    }
  }
}
node {
  name: "IsVariableInitialized_646"
  op: "IsVariableInitialized"
  input: "conv2d_67/bias"
  attr {
    key: "_class"
    value {
      list {
        s: "loc:@conv2d_67/bias"
      }
    }
  }
  attr {
    key: "dtype"
    value {
      type: DT_FLOAT
    }
  }
}
node {
  name: "IsVariableInitialized_647"
  op: "IsVariableInitialized"
  input: "conv2d_75/kernel"
  attr {
    key: "_class"
    value {
      list {
        s: "loc:@conv2d_75/kernel"
      }
    }
  }
  attr {
    key: "dtype"
    value {
      type: DT_FLOAT
    }
  }
}
node {
  name: "IsVariableInitialized_648"
  op: "IsVariableInitialized"
  input: "conv2d_75/bias"
  attr {
    key: "_class"
    value {
      list {
        s: "loc:@conv2d_75/bias"
      }
    }
  }
  attr {
    key: "dtype"
    value {
      type: DT_FLOAT
    }
  }
}
node {
  name: "init"
  op: "NoOp"
  input: "^batch_normalization_1/moving_mean/biased/Assign"
  input: "^batch_normalization_1/moving_mean/local_step/Assign"
  input: "^batch_normalization_1/moving_variance/biased/Assign"
  input: "^batch_normalization_1/moving_variance/local_step/Assign"
  input: "^batch_normalization_10/beta/Assign"
  input: "^batch_normalization_10/gamma/Assign"
  input: "^batch_normalization_10/moving_mean/Assign"
  input: "^batch_normalization_10/moving_mean/biased/Assign"
  input: "^batch_normalization_10/moving_mean/local_step/Assign"
  input: "^batch_normalization_10/moving_variance/Assign"
  input: "^batch_normalization_10/moving_variance/biased/Assign"
  input: "^batch_normalization_10/moving_variance/local_step/Assign"
  input: "^batch_normalization_11/beta/Assign"
  input: "^batch_normalization_11/gamma/Assign"
  input: "^batch_normalization_11/moving_mean/Assign"
  input: "^batch_normalization_11/moving_mean/biased/Assign"
  input: "^batch_normalization_11/moving_mean/local_step/Assign"
  input: "^batch_normalization_11/moving_variance/Assign"
  input: "^batch_normalization_11/moving_variance/biased/Assign"
  input: "^batch_normalization_11/moving_variance/local_step/Assign"
  input: "^batch_normalization_12/beta/Assign"
  input: "^batch_normalization_12/gamma/Assign"
  input: "^batch_normalization_12/moving_mean/Assign"
  input: "^batch_normalization_12/moving_mean/biased/Assign"
  input: "^batch_normalization_12/moving_mean/local_step/Assign"
  input: "^batch_normalization_12/moving_variance/Assign"
  input: "^batch_normalization_12/moving_variance/biased/Assign"
  input: "^batch_normalization_12/moving_variance/local_step/Assign"
  input: "^batch_normalization_13/beta/Assign"
  input: "^batch_normalization_13/gamma/Assign"
  input: "^batch_normalization_13/moving_mean/Assign"
  input: "^batch_normalization_13/moving_mean/biased/Assign"
  input: "^batch_normalization_13/moving_mean/local_step/Assign"
  input: "^batch_normalization_13/moving_variance/Assign"
  input: "^batch_normalization_13/moving_variance/biased/Assign"
  input: "^batch_normalization_13/moving_variance/local_step/Assign"
  input: "^batch_normalization_14/beta/Assign"
  input: "^batch_normalization_14/gamma/Assign"
  input: "^batch_normalization_14/moving_mean/Assign"
  input: "^batch_normalization_14/moving_mean/biased/Assign"
  input: "^batch_normalization_14/moving_mean/local_step/Assign"
  input: "^batch_normalization_14/moving_variance/Assign"
  input: "^batch_normalization_14/moving_variance/biased/Assign"
  input: "^batch_normalization_14/moving_variance/local_step/Assign"
  input: "^batch_normalization_15/beta/Assign"
  input: "^batch_normalization_15/gamma/Assign"
  input: "^batch_normalization_15/moving_mean/Assign"
  input: "^batch_normalization_15/moving_mean/biased/Assign"
  input: "^batch_normalization_15/moving_mean/local_step/Assign"
  input: "^batch_normalization_15/moving_variance/Assign"
  input: "^batch_normalization_15/moving_variance/biased/Assign"
  input: "^batch_normalization_15/moving_variance/local_step/Assign"
  input: "^batch_normalization_16/beta/Assign"
  input: "^batch_normalization_16/gamma/Assign"
  input: "^batch_normalization_16/moving_mean/Assign"
  input: "^batch_normalization_16/moving_mean/biased/Assign"
  input: "^batch_normalization_16/moving_mean/local_step/Assign"
  input: "^batch_normalization_16/moving_variance/Assign"
  input: "^batch_normalization_16/moving_variance/biased/Assign"
  input: "^batch_normalization_16/moving_variance/local_step/Assign"
  input: "^batch_normalization_17/beta/Assign"
  input: "^batch_normalization_17/gamma/Assign"
  input: "^batch_normalization_17/moving_mean/Assign"
  input: "^batch_normalization_17/moving_mean/biased/Assign"
  input: "^batch_normalization_17/moving_mean/local_step/Assign"
  input: "^batch_normalization_17/moving_variance/Assign"
  input: "^batch_normalization_17/moving_variance/biased/Assign"
  input: "^batch_normalization_17/moving_variance/local_step/Assign"
  input: "^batch_normalization_18/beta/Assign"
  input: "^batch_normalization_18/gamma/Assign"
  input: "^batch_normalization_18/moving_mean/Assign"
  input: "^batch_normalization_18/moving_mean/biased/Assign"
  input: "^batch_normalization_18/moving_mean/local_step/Assign"
  input: "^batch_normalization_18/moving_variance/Assign"
  input: "^batch_normalization_18/moving_variance/biased/Assign"
  input: "^batch_normalization_18/moving_variance/local_step/Assign"
  input: "^batch_normalization_19/beta/Assign"
  input: "^batch_normalization_19/gamma/Assign"
  input: "^batch_normalization_19/moving_mean/Assign"
  input: "^batch_normalization_19/moving_mean/biased/Assign"
  input: "^batch_normalization_19/moving_mean/local_step/Assign"
  input: "^batch_normalization_19/moving_variance/Assign"
  input: "^batch_normalization_19/moving_variance/biased/Assign"
  input: "^batch_normalization_19/moving_variance/local_step/Assign"
  input: "^batch_normalization_2/beta/Assign"
  input: "^batch_normalization_2/gamma/Assign"
  input: "^batch_normalization_2/moving_mean/Assign"
  input: "^batch_normalization_2/moving_mean/biased/Assign"
  input: "^batch_normalization_2/moving_mean/local_step/Assign"
  input: "^batch_normalization_2/moving_variance/Assign"
  input: "^batch_normalization_2/moving_variance/biased/Assign"
  input: "^batch_normalization_2/moving_variance/local_step/Assign"
  input: "^batch_normalization_20/beta/Assign"
  input: "^batch_normalization_20/gamma/Assign"
  input: "^batch_normalization_20/moving_mean/Assign"
  input: "^batch_normalization_20/moving_mean/biased/Assign"
  input: "^batch_normalization_20/moving_mean/local_step/Assign"
  input: "^batch_normalization_20/moving_variance/Assign"
  input: "^batch_normalization_20/moving_variance/biased/Assign"
  input: "^batch_normalization_20/moving_variance/local_step/Assign"
  input: "^batch_normalization_21/beta/Assign"
  input: "^batch_normalization_21/gamma/Assign"
  input: "^batch_normalization_21/moving_mean/Assign"
  input: "^batch_normalization_21/moving_mean/biased/Assign"
  input: "^batch_normalization_21/moving_mean/local_step/Assign"
  input: "^batch_normalization_21/moving_variance/Assign"
  input: "^batch_normalization_21/moving_variance/biased/Assign"
  input: "^batch_normalization_21/moving_variance/local_step/Assign"
  input: "^batch_normalization_22/beta/Assign"
  input: "^batch_normalization_22/gamma/Assign"
  input: "^batch_normalization_22/moving_mean/Assign"
  input: "^batch_normalization_22/moving_mean/biased/Assign"
  input: "^batch_normalization_22/moving_mean/local_step/Assign"
  input: "^batch_normalization_22/moving_variance/Assign"
  input: "^batch_normalization_22/moving_variance/biased/Assign"
  input: "^batch_normalization_22/moving_variance/local_step/Assign"
  input: "^batch_normalization_23/beta/Assign"
  input: "^batch_normalization_23/gamma/Assign"
  input: "^batch_normalization_23/moving_mean/Assign"
  input: "^batch_normalization_23/moving_mean/biased/Assign"
  input: "^batch_normalization_23/moving_mean/local_step/Assign"
  input: "^batch_normalization_23/moving_variance/Assign"
  input: "^batch_normalization_23/moving_variance/biased/Assign"
  input: "^batch_normalization_23/moving_variance/local_step/Assign"
  input: "^batch_normalization_24/beta/Assign"
  input: "^batch_normalization_24/gamma/Assign"
  input: "^batch_normalization_24/moving_mean/Assign"
  input: "^batch_normalization_24/moving_mean/biased/Assign"
  input: "^batch_normalization_24/moving_mean/local_step/Assign"
  input: "^batch_normalization_24/moving_variance/Assign"
  input: "^batch_normalization_24/moving_variance/biased/Assign"
  input: "^batch_normalization_24/moving_variance/local_step/Assign"
  input: "^batch_normalization_25/beta/Assign"
  input: "^batch_normalization_25/gamma/Assign"
  input: "^batch_normalization_25/moving_mean/Assign"
  input: "^batch_normalization_25/moving_mean/biased/Assign"
  input: "^batch_normalization_25/moving_mean/local_step/Assign"
  input: "^batch_normalization_25/moving_variance/Assign"
  input: "^batch_normalization_25/moving_variance/biased/Assign"
  input: "^batch_normalization_25/moving_variance/local_step/Assign"
  input: "^batch_normalization_26/beta/Assign"
  input: "^batch_normalization_26/gamma/Assign"
  input: "^batch_normalization_26/moving_mean/Assign"
  input: "^batch_normalization_26/moving_mean/biased/Assign"
  input: "^batch_normalization_26/moving_mean/local_step/Assign"
  input: "^batch_normalization_26/moving_variance/Assign"
  input: "^batch_normalization_26/moving_variance/biased/Assign"
  input: "^batch_normalization_26/moving_variance/local_step/Assign"
  input: "^batch_normalization_27/beta/Assign"
  input: "^batch_normalization_27/gamma/Assign"
  input: "^batch_normalization_27/moving_mean/Assign"
  input: "^batch_normalization_27/moving_mean/biased/Assign"
  input: "^batch_normalization_27/moving_mean/local_step/Assign"
  input: "^batch_normalization_27/moving_variance/Assign"
  input: "^batch_normalization_27/moving_variance/biased/Assign"
  input: "^batch_normalization_27/moving_variance/local_step/Assign"
  input: "^batch_normalization_28/beta/Assign"
  input: "^batch_normalization_28/gamma/Assign"
  input: "^batch_normalization_28/moving_mean/Assign"
  input: "^batch_normalization_28/moving_mean/biased/Assign"
  input: "^batch_normalization_28/moving_mean/local_step/Assign"
  input: "^batch_normalization_28/moving_variance/Assign"
  input: "^batch_normalization_28/moving_variance/biased/Assign"
  input: "^batch_normalization_28/moving_variance/local_step/Assign"
  input: "^batch_normalization_29/beta/Assign"
  input: "^batch_normalization_29/gamma/Assign"
  input: "^batch_normalization_29/moving_mean/Assign"
  input: "^batch_normalization_29/moving_mean/biased/Assign"
  input: "^batch_normalization_29/moving_mean/local_step/Assign"
  input: "^batch_normalization_29/moving_variance/Assign"
  input: "^batch_normalization_29/moving_variance/biased/Assign"
  input: "^batch_normalization_29/moving_variance/local_step/Assign"
  input: "^batch_normalization_3/beta/Assign"
  input: "^batch_normalization_3/gamma/Assign"
  input: "^batch_normalization_3/moving_mean/Assign"
  input: "^batch_normalization_3/moving_mean/biased/Assign"
  input: "^batch_normalization_3/moving_mean/local_step/Assign"
  input: "^batch_normalization_3/moving_variance/Assign"
  input: "^batch_normalization_3/moving_variance/biased/Assign"
  input: "^batch_normalization_3/moving_variance/local_step/Assign"
  input: "^batch_normalization_30/beta/Assign"
  input: "^batch_normalization_30/gamma/Assign"
  input: "^batch_normalization_30/moving_mean/Assign"
  input: "^batch_normalization_30/moving_mean/biased/Assign"
  input: "^batch_normalization_30/moving_mean/local_step/Assign"
  input: "^batch_normalization_30/moving_variance/Assign"
  input: "^batch_normalization_30/moving_variance/biased/Assign"
  input: "^batch_normalization_30/moving_variance/local_step/Assign"
  input: "^batch_normalization_31/beta/Assign"
  input: "^batch_normalization_31/gamma/Assign"
  input: "^batch_normalization_31/moving_mean/Assign"
  input: "^batch_normalization_31/moving_mean/biased/Assign"
  input: "^batch_normalization_31/moving_mean/local_step/Assign"
  input: "^batch_normalization_31/moving_variance/Assign"
  input: "^batch_normalization_31/moving_variance/biased/Assign"
  input: "^batch_normalization_31/moving_variance/local_step/Assign"
  input: "^batch_normalization_32/beta/Assign"
  input: "^batch_normalization_32/gamma/Assign"
  input: "^batch_normalization_32/moving_mean/Assign"
  input: "^batch_normalization_32/moving_mean/biased/Assign"
  input: "^batch_normalization_32/moving_mean/local_step/Assign"
  input: "^batch_normalization_32/moving_variance/Assign"
  input: "^batch_normalization_32/moving_variance/biased/Assign"
  input: "^batch_normalization_32/moving_variance/local_step/Assign"
  input: "^batch_normalization_33/beta/Assign"
  input: "^batch_normalization_33/gamma/Assign"
  input: "^batch_normalization_33/moving_mean/Assign"
  input: "^batch_normalization_33/moving_mean/biased/Assign"
  input: "^batch_normalization_33/moving_mean/local_step/Assign"
  input: "^batch_normalization_33/moving_variance/Assign"
  input: "^batch_normalization_33/moving_variance/biased/Assign"
  input: "^batch_normalization_33/moving_variance/local_step/Assign"
  input: "^batch_normalization_34/beta/Assign"
  input: "^batch_normalization_34/gamma/Assign"
  input: "^batch_normalization_34/moving_mean/Assign"
  input: "^batch_normalization_34/moving_mean/biased/Assign"
  input: "^batch_normalization_34/moving_mean/local_step/Assign"
  input: "^batch_normalization_34/moving_variance/Assign"
  input: "^batch_normalization_34/moving_variance/biased/Assign"
  input: "^batch_normalization_34/moving_variance/local_step/Assign"
  input: "^batch_normalization_35/beta/Assign"
  input: "^batch_normalization_35/gamma/Assign"
  input: "^batch_normalization_35/moving_mean/Assign"
  input: "^batch_normalization_35/moving_mean/biased/Assign"
  input: "^batch_normalization_35/moving_mean/local_step/Assign"
  input: "^batch_normalization_35/moving_variance/Assign"
  input: "^batch_normalization_35/moving_variance/biased/Assign"
  input: "^batch_normalization_35/moving_variance/local_step/Assign"
  input: "^batch_normalization_36/beta/Assign"
  input: "^batch_normalization_36/gamma/Assign"
  input: "^batch_normalization_36/moving_mean/Assign"
  input: "^batch_normalization_36/moving_mean/biased/Assign"
  input: "^batch_normalization_36/moving_mean/local_step/Assign"
  input: "^batch_normalization_36/moving_variance/Assign"
  input: "^batch_normalization_36/moving_variance/biased/Assign"
  input: "^batch_normalization_36/moving_variance/local_step/Assign"
  input: "^batch_normalization_37/beta/Assign"
  input: "^batch_normalization_37/gamma/Assign"
  input: "^batch_normalization_37/moving_mean/Assign"
  input: "^batch_normalization_37/moving_mean/biased/Assign"
  input: "^batch_normalization_37/moving_mean/local_step/Assign"
  input: "^batch_normalization_37/moving_variance/Assign"
  input: "^batch_normalization_37/moving_variance/biased/Assign"
  input: "^batch_normalization_37/moving_variance/local_step/Assign"
  input: "^batch_normalization_38/beta/Assign"
  input: "^batch_normalization_38/gamma/Assign"
  input: "^batch_normalization_38/moving_mean/Assign"
  input: "^batch_normalization_38/moving_mean/biased/Assign"
  input: "^batch_normalization_38/moving_mean/local_step/Assign"
  input: "^batch_normalization_38/moving_variance/Assign"
  input: "^batch_normalization_38/moving_variance/biased/Assign"
  input: "^batch_normalization_38/moving_variance/local_step/Assign"
  input: "^batch_normalization_39/beta/Assign"
  input: "^batch_normalization_39/gamma/Assign"
  input: "^batch_normalization_39/moving_mean/Assign"
  input: "^batch_normalization_39/moving_mean/biased/Assign"
  input: "^batch_normalization_39/moving_mean/local_step/Assign"
  input: "^batch_normalization_39/moving_variance/Assign"
  input: "^batch_normalization_39/moving_variance/biased/Assign"
  input: "^batch_normalization_39/moving_variance/local_step/Assign"
  input: "^batch_normalization_4/beta/Assign"
  input: "^batch_normalization_4/gamma/Assign"
  input: "^batch_normalization_4/moving_mean/Assign"
  input: "^batch_normalization_4/moving_mean/biased/Assign"
  input: "^batch_normalization_4/moving_mean/local_step/Assign"
  input: "^batch_normalization_4/moving_variance/Assign"
  input: "^batch_normalization_4/moving_variance/biased/Assign"
  input: "^batch_normalization_4/moving_variance/local_step/Assign"
  input: "^batch_normalization_40/beta/Assign"
  input: "^batch_normalization_40/gamma/Assign"
  input: "^batch_normalization_40/moving_mean/Assign"
  input: "^batch_normalization_40/moving_mean/biased/Assign"
  input: "^batch_normalization_40/moving_mean/local_step/Assign"
  input: "^batch_normalization_40/moving_variance/Assign"
  input: "^batch_normalization_40/moving_variance/biased/Assign"
  input: "^batch_normalization_40/moving_variance/local_step/Assign"
  input: "^batch_normalization_41/beta/Assign"
  input: "^batch_normalization_41/gamma/Assign"
  input: "^batch_normalization_41/moving_mean/Assign"
  input: "^batch_normalization_41/moving_mean/biased/Assign"
  input: "^batch_normalization_41/moving_mean/local_step/Assign"
  input: "^batch_normalization_41/moving_variance/Assign"
  input: "^batch_normalization_41/moving_variance/biased/Assign"
  input: "^batch_normalization_41/moving_variance/local_step/Assign"
  input: "^batch_normalization_42/beta/Assign"
  input: "^batch_normalization_42/gamma/Assign"
  input: "^batch_normalization_42/moving_mean/Assign"
  input: "^batch_normalization_42/moving_mean/biased/Assign"
  input: "^batch_normalization_42/moving_mean/local_step/Assign"
  input: "^batch_normalization_42/moving_variance/Assign"
  input: "^batch_normalization_42/moving_variance/biased/Assign"
  input: "^batch_normalization_42/moving_variance/local_step/Assign"
  input: "^batch_normalization_43/beta/Assign"
  input: "^batch_normalization_43/gamma/Assign"
  input: "^batch_normalization_43/moving_mean/Assign"
  input: "^batch_normalization_43/moving_mean/biased/Assign"
  input: "^batch_normalization_43/moving_mean/local_step/Assign"
  input: "^batch_normalization_43/moving_variance/Assign"
  input: "^batch_normalization_43/moving_variance/biased/Assign"
  input: "^batch_normalization_43/moving_variance/local_step/Assign"
  input: "^batch_normalization_44/beta/Assign"
  input: "^batch_normalization_44/gamma/Assign"
  input: "^batch_normalization_44/moving_mean/Assign"
  input: "^batch_normalization_44/moving_mean/biased/Assign"
  input: "^batch_normalization_44/moving_mean/local_step/Assign"
  input: "^batch_normalization_44/moving_variance/Assign"
  input: "^batch_normalization_44/moving_variance/biased/Assign"
  input: "^batch_normalization_44/moving_variance/local_step/Assign"
  input: "^batch_normalization_45/beta/Assign"
  input: "^batch_normalization_45/gamma/Assign"
  input: "^batch_normalization_45/moving_mean/Assign"
  input: "^batch_normalization_45/moving_mean/biased/Assign"
  input: "^batch_normalization_45/moving_mean/local_step/Assign"
  input: "^batch_normalization_45/moving_variance/Assign"
  input: "^batch_normalization_45/moving_variance/biased/Assign"
  input: "^batch_normalization_45/moving_variance/local_step/Assign"
  input: "^batch_normalization_46/beta/Assign"
  input: "^batch_normalization_46/gamma/Assign"
  input: "^batch_normalization_46/moving_mean/Assign"
  input: "^batch_normalization_46/moving_mean/biased/Assign"
  input: "^batch_normalization_46/moving_mean/local_step/Assign"
  input: "^batch_normalization_46/moving_variance/Assign"
  input: "^batch_normalization_46/moving_variance/biased/Assign"
  input: "^batch_normalization_46/moving_variance/local_step/Assign"
  input: "^batch_normalization_47/beta/Assign"
  input: "^batch_normalization_47/gamma/Assign"
  input: "^batch_normalization_47/moving_mean/Assign"
  input: "^batch_normalization_47/moving_mean/biased/Assign"
  input: "^batch_normalization_47/moving_mean/local_step/Assign"
  input: "^batch_normalization_47/moving_variance/Assign"
  input: "^batch_normalization_47/moving_variance/biased/Assign"
  input: "^batch_normalization_47/moving_variance/local_step/Assign"
  input: "^batch_normalization_48/beta/Assign"
  input: "^batch_normalization_48/gamma/Assign"
  input: "^batch_normalization_48/moving_mean/Assign"
  input: "^batch_normalization_48/moving_mean/biased/Assign"
  input: "^batch_normalization_48/moving_mean/local_step/Assign"
  input: "^batch_normalization_48/moving_variance/Assign"
  input: "^batch_normalization_48/moving_variance/biased/Assign"
  input: "^batch_normalization_48/moving_variance/local_step/Assign"
  input: "^batch_normalization_49/beta/Assign"
  input: "^batch_normalization_49/gamma/Assign"
  input: "^batch_normalization_49/moving_mean/Assign"
  input: "^batch_normalization_49/moving_mean/biased/Assign"
  input: "^batch_normalization_49/moving_mean/local_step/Assign"
  input: "^batch_normalization_49/moving_variance/Assign"
  input: "^batch_normalization_49/moving_variance/biased/Assign"
  input: "^batch_normalization_49/moving_variance/local_step/Assign"
  input: "^batch_normalization_5/beta/Assign"
  input: "^batch_normalization_5/gamma/Assign"
  input: "^batch_normalization_5/moving_mean/Assign"
  input: "^batch_normalization_5/moving_mean/biased/Assign"
  input: "^batch_normalization_5/moving_mean/local_step/Assign"
  input: "^batch_normalization_5/moving_variance/Assign"
  input: "^batch_normalization_5/moving_variance/biased/Assign"
  input: "^batch_normalization_5/moving_variance/local_step/Assign"
  input: "^batch_normalization_50/beta/Assign"
  input: "^batch_normalization_50/gamma/Assign"
  input: "^batch_normalization_50/moving_mean/Assign"
  input: "^batch_normalization_50/moving_mean/biased/Assign"
  input: "^batch_normalization_50/moving_mean/local_step/Assign"
  input: "^batch_normalization_50/moving_variance/Assign"
  input: "^batch_normalization_50/moving_variance/biased/Assign"
  input: "^batch_normalization_50/moving_variance/local_step/Assign"
  input: "^batch_normalization_51/beta/Assign"
  input: "^batch_normalization_51/gamma/Assign"
  input: "^batch_normalization_51/moving_mean/Assign"
  input: "^batch_normalization_51/moving_mean/biased/Assign"
  input: "^batch_normalization_51/moving_mean/local_step/Assign"
  input: "^batch_normalization_51/moving_variance/Assign"
  input: "^batch_normalization_51/moving_variance/biased/Assign"
  input: "^batch_normalization_51/moving_variance/local_step/Assign"
  input: "^batch_normalization_52/beta/Assign"
  input: "^batch_normalization_52/gamma/Assign"
  input: "^batch_normalization_52/moving_mean/Assign"
  input: "^batch_normalization_52/moving_mean/biased/Assign"
  input: "^batch_normalization_52/moving_mean/local_step/Assign"
  input: "^batch_normalization_52/moving_variance/Assign"
  input: "^batch_normalization_52/moving_variance/biased/Assign"
  input: "^batch_normalization_52/moving_variance/local_step/Assign"
  input: "^batch_normalization_53/beta/Assign"
  input: "^batch_normalization_53/gamma/Assign"
  input: "^batch_normalization_53/moving_mean/Assign"
  input: "^batch_normalization_53/moving_mean/biased/Assign"
  input: "^batch_normalization_53/moving_mean/local_step/Assign"
  input: "^batch_normalization_53/moving_variance/Assign"
  input: "^batch_normalization_53/moving_variance/biased/Assign"
  input: "^batch_normalization_53/moving_variance/local_step/Assign"
  input: "^batch_normalization_54/beta/Assign"
  input: "^batch_normalization_54/gamma/Assign"
  input: "^batch_normalization_54/moving_mean/Assign"
  input: "^batch_normalization_54/moving_mean/biased/Assign"
  input: "^batch_normalization_54/moving_mean/local_step/Assign"
  input: "^batch_normalization_54/moving_variance/Assign"
  input: "^batch_normalization_54/moving_variance/biased/Assign"
  input: "^batch_normalization_54/moving_variance/local_step/Assign"
  input: "^batch_normalization_55/beta/Assign"
  input: "^batch_normalization_55/gamma/Assign"
  input: "^batch_normalization_55/moving_mean/Assign"
  input: "^batch_normalization_55/moving_mean/biased/Assign"
  input: "^batch_normalization_55/moving_mean/local_step/Assign"
  input: "^batch_normalization_55/moving_variance/Assign"
  input: "^batch_normalization_55/moving_variance/biased/Assign"
  input: "^batch_normalization_55/moving_variance/local_step/Assign"
  input: "^batch_normalization_56/beta/Assign"
  input: "^batch_normalization_56/gamma/Assign"
  input: "^batch_normalization_56/moving_mean/Assign"
  input: "^batch_normalization_56/moving_mean/biased/Assign"
  input: "^batch_normalization_56/moving_mean/local_step/Assign"
  input: "^batch_normalization_56/moving_variance/Assign"
  input: "^batch_normalization_56/moving_variance/biased/Assign"
  input: "^batch_normalization_56/moving_variance/local_step/Assign"
  input: "^batch_normalization_57/beta/Assign"
  input: "^batch_normalization_57/gamma/Assign"
  input: "^batch_normalization_57/moving_mean/Assign"
  input: "^batch_normalization_57/moving_mean/biased/Assign"
  input: "^batch_normalization_57/moving_mean/local_step/Assign"
  input: "^batch_normalization_57/moving_variance/Assign"
  input: "^batch_normalization_57/moving_variance/biased/Assign"
  input: "^batch_normalization_57/moving_variance/local_step/Assign"
  input: "^batch_normalization_58/beta/Assign"
  input: "^batch_normalization_58/gamma/Assign"
  input: "^batch_normalization_58/moving_mean/Assign"
  input: "^batch_normalization_58/moving_mean/biased/Assign"
  input: "^batch_normalization_58/moving_mean/local_step/Assign"
  input: "^batch_normalization_58/moving_variance/Assign"
  input: "^batch_normalization_58/moving_variance/biased/Assign"
  input: "^batch_normalization_58/moving_variance/local_step/Assign"
  input: "^batch_normalization_59/beta/Assign"
  input: "^batch_normalization_59/gamma/Assign"
  input: "^batch_normalization_59/moving_mean/Assign"
  input: "^batch_normalization_59/moving_mean/biased/Assign"
  input: "^batch_normalization_59/moving_mean/local_step/Assign"
  input: "^batch_normalization_59/moving_variance/Assign"
  input: "^batch_normalization_59/moving_variance/biased/Assign"
  input: "^batch_normalization_59/moving_variance/local_step/Assign"
  input: "^batch_normalization_6/beta/Assign"
  input: "^batch_normalization_6/gamma/Assign"
  input: "^batch_normalization_6/moving_mean/Assign"
  input: "^batch_normalization_6/moving_mean/biased/Assign"
  input: "^batch_normalization_6/moving_mean/local_step/Assign"
  input: "^batch_normalization_6/moving_variance/Assign"
  input: "^batch_normalization_6/moving_variance/biased/Assign"
  input: "^batch_normalization_6/moving_variance/local_step/Assign"
  input: "^batch_normalization_60/beta/Assign"
  input: "^batch_normalization_60/gamma/Assign"
  input: "^batch_normalization_60/moving_mean/Assign"
  input: "^batch_normalization_60/moving_mean/biased/Assign"
  input: "^batch_normalization_60/moving_mean/local_step/Assign"
  input: "^batch_normalization_60/moving_variance/Assign"
  input: "^batch_normalization_60/moving_variance/biased/Assign"
  input: "^batch_normalization_60/moving_variance/local_step/Assign"
  input: "^batch_normalization_61/beta/Assign"
  input: "^batch_normalization_61/gamma/Assign"
  input: "^batch_normalization_61/moving_mean/Assign"
  input: "^batch_normalization_61/moving_mean/biased/Assign"
  input: "^batch_normalization_61/moving_mean/local_step/Assign"
  input: "^batch_normalization_61/moving_variance/Assign"
  input: "^batch_normalization_61/moving_variance/biased/Assign"
  input: "^batch_normalization_61/moving_variance/local_step/Assign"
  input: "^batch_normalization_62/beta/Assign"
  input: "^batch_normalization_62/gamma/Assign"
  input: "^batch_normalization_62/moving_mean/Assign"
  input: "^batch_normalization_62/moving_mean/biased/Assign"
  input: "^batch_normalization_62/moving_mean/local_step/Assign"
  input: "^batch_normalization_62/moving_variance/Assign"
  input: "^batch_normalization_62/moving_variance/biased/Assign"
  input: "^batch_normalization_62/moving_variance/local_step/Assign"
  input: "^batch_normalization_63/beta/Assign"
  input: "^batch_normalization_63/gamma/Assign"
  input: "^batch_normalization_63/moving_mean/Assign"
  input: "^batch_normalization_63/moving_mean/biased/Assign"
  input: "^batch_normalization_63/moving_mean/local_step/Assign"
  input: "^batch_normalization_63/moving_variance/Assign"
  input: "^batch_normalization_63/moving_variance/biased/Assign"
  input: "^batch_normalization_63/moving_variance/local_step/Assign"
  input: "^batch_normalization_64/beta/Assign"
  input: "^batch_normalization_64/gamma/Assign"
  input: "^batch_normalization_64/moving_mean/Assign"
  input: "^batch_normalization_64/moving_mean/biased/Assign"
  input: "^batch_normalization_64/moving_mean/local_step/Assign"
  input: "^batch_normalization_64/moving_variance/Assign"
  input: "^batch_normalization_64/moving_variance/biased/Assign"
  input: "^batch_normalization_64/moving_variance/local_step/Assign"
  input: "^batch_normalization_65/beta/Assign"
  input: "^batch_normalization_65/gamma/Assign"
  input: "^batch_normalization_65/moving_mean/Assign"
  input: "^batch_normalization_65/moving_mean/biased/Assign"
  input: "^batch_normalization_65/moving_mean/local_step/Assign"
  input: "^batch_normalization_65/moving_variance/Assign"
  input: "^batch_normalization_65/moving_variance/biased/Assign"
  input: "^batch_normalization_65/moving_variance/local_step/Assign"
  input: "^batch_normalization_66/beta/Assign"
  input: "^batch_normalization_66/gamma/Assign"
  input: "^batch_normalization_66/moving_mean/Assign"
  input: "^batch_normalization_66/moving_mean/biased/Assign"
  input: "^batch_normalization_66/moving_mean/local_step/Assign"
  input: "^batch_normalization_66/moving_variance/Assign"
  input: "^batch_normalization_66/moving_variance/biased/Assign"
  input: "^batch_normalization_66/moving_variance/local_step/Assign"
  input: "^batch_normalization_67/beta/Assign"
  input: "^batch_normalization_67/gamma/Assign"
  input: "^batch_normalization_67/moving_mean/Assign"
  input: "^batch_normalization_67/moving_mean/biased/Assign"
  input: "^batch_normalization_67/moving_mean/local_step/Assign"
  input: "^batch_normalization_67/moving_variance/Assign"
  input: "^batch_normalization_67/moving_variance/biased/Assign"
  input: "^batch_normalization_67/moving_variance/local_step/Assign"
  input: "^batch_normalization_68/beta/Assign"
  input: "^batch_normalization_68/gamma/Assign"
  input: "^batch_normalization_68/moving_mean/Assign"
  input: "^batch_normalization_68/moving_mean/biased/Assign"
  input: "^batch_normalization_68/moving_mean/local_step/Assign"
  input: "^batch_normalization_68/moving_variance/Assign"
  input: "^batch_normalization_68/moving_variance/biased/Assign"
  input: "^batch_normalization_68/moving_variance/local_step/Assign"
  input: "^batch_normalization_69/beta/Assign"
  input: "^batch_normalization_69/gamma/Assign"
  input: "^batch_normalization_69/moving_mean/Assign"
  input: "^batch_normalization_69/moving_mean/biased/Assign"
  input: "^batch_normalization_69/moving_mean/local_step/Assign"
  input: "^batch_normalization_69/moving_variance/Assign"
  input: "^batch_normalization_69/moving_variance/biased/Assign"
  input: "^batch_normalization_69/moving_variance/local_step/Assign"
  input: "^batch_normalization_7/beta/Assign"
  input: "^batch_normalization_7/gamma/Assign"
  input: "^batch_normalization_7/moving_mean/Assign"
  input: "^batch_normalization_7/moving_mean/biased/Assign"
  input: "^batch_normalization_7/moving_mean/local_step/Assign"
  input: "^batch_normalization_7/moving_variance/Assign"
  input: "^batch_normalization_7/moving_variance/biased/Assign"
  input: "^batch_normalization_7/moving_variance/local_step/Assign"
  input: "^batch_normalization_70/beta/Assign"
  input: "^batch_normalization_70/gamma/Assign"
  input: "^batch_normalization_70/moving_mean/Assign"
  input: "^batch_normalization_70/moving_mean/biased/Assign"
  input: "^batch_normalization_70/moving_mean/local_step/Assign"
  input: "^batch_normalization_70/moving_variance/Assign"
  input: "^batch_normalization_70/moving_variance/biased/Assign"
  input: "^batch_normalization_70/moving_variance/local_step/Assign"
  input: "^batch_normalization_71/beta/Assign"
  input: "^batch_normalization_71/gamma/Assign"
  input: "^batch_normalization_71/moving_mean/Assign"
  input: "^batch_normalization_71/moving_mean/biased/Assign"
  input: "^batch_normalization_71/moving_mean/local_step/Assign"
  input: "^batch_normalization_71/moving_variance/Assign"
  input: "^batch_normalization_71/moving_variance/biased/Assign"
  input: "^batch_normalization_71/moving_variance/local_step/Assign"
  input: "^batch_normalization_72/beta/Assign"
  input: "^batch_normalization_72/gamma/Assign"
  input: "^batch_normalization_72/moving_mean/Assign"
  input: "^batch_normalization_72/moving_mean/biased/Assign"
  input: "^batch_normalization_72/moving_mean/local_step/Assign"
  input: "^batch_normalization_72/moving_variance/Assign"
  input: "^batch_normalization_72/moving_variance/biased/Assign"
  input: "^batch_normalization_72/moving_variance/local_step/Assign"
  input: "^batch_normalization_8/beta/Assign"
  input: "^batch_normalization_8/gamma/Assign"
  input: "^batch_normalization_8/moving_mean/Assign"
  input: "^batch_normalization_8/moving_mean/biased/Assign"
  input: "^batch_normalization_8/moving_mean/local_step/Assign"
  input: "^batch_normalization_8/moving_variance/Assign"
  input: "^batch_normalization_8/moving_variance/biased/Assign"
  input: "^batch_normalization_8/moving_variance/local_step/Assign"
  input: "^batch_normalization_9/beta/Assign"
  input: "^batch_normalization_9/gamma/Assign"
  input: "^batch_normalization_9/moving_mean/Assign"
  input: "^batch_normalization_9/moving_mean/biased/Assign"
  input: "^batch_normalization_9/moving_mean/local_step/Assign"
  input: "^batch_normalization_9/moving_variance/Assign"
  input: "^batch_normalization_9/moving_variance/biased/Assign"
  input: "^batch_normalization_9/moving_variance/local_step/Assign"
  input: "^conv2d_10/kernel/Assign"
  input: "^conv2d_11/kernel/Assign"
  input: "^conv2d_12/kernel/Assign"
  input: "^conv2d_13/kernel/Assign"
  input: "^conv2d_14/kernel/Assign"
  input: "^conv2d_15/kernel/Assign"
  input: "^conv2d_16/kernel/Assign"
  input: "^conv2d_17/kernel/Assign"
  input: "^conv2d_18/kernel/Assign"
  input: "^conv2d_19/kernel/Assign"
  input: "^conv2d_2/kernel/Assign"
  input: "^conv2d_20/kernel/Assign"
  input: "^conv2d_21/kernel/Assign"
  input: "^conv2d_22/kernel/Assign"
  input: "^conv2d_23/kernel/Assign"
  input: "^conv2d_24/kernel/Assign"
  input: "^conv2d_25/kernel/Assign"
  input: "^conv2d_26/kernel/Assign"
  input: "^conv2d_27/kernel/Assign"
  input: "^conv2d_28/kernel/Assign"
  input: "^conv2d_29/kernel/Assign"
  input: "^conv2d_3/kernel/Assign"
  input: "^conv2d_30/kernel/Assign"
  input: "^conv2d_31/kernel/Assign"
  input: "^conv2d_32/kernel/Assign"
  input: "^conv2d_33/kernel/Assign"
  input: "^conv2d_34/kernel/Assign"
  input: "^conv2d_35/kernel/Assign"
  input: "^conv2d_36/kernel/Assign"
  input: "^conv2d_37/kernel/Assign"
  input: "^conv2d_38/kernel/Assign"
  input: "^conv2d_39/kernel/Assign"
  input: "^conv2d_4/kernel/Assign"
  input: "^conv2d_40/kernel/Assign"
  input: "^conv2d_41/kernel/Assign"
  input: "^conv2d_42/kernel/Assign"
  input: "^conv2d_43/kernel/Assign"
  input: "^conv2d_44/kernel/Assign"
  input: "^conv2d_45/kernel/Assign"
  input: "^conv2d_46/kernel/Assign"
  input: "^conv2d_47/kernel/Assign"
  input: "^conv2d_48/kernel/Assign"
  input: "^conv2d_49/kernel/Assign"
  input: "^conv2d_5/kernel/Assign"
  input: "^conv2d_50/kernel/Assign"
  input: "^conv2d_51/kernel/Assign"
  input: "^conv2d_52/kernel/Assign"
  input: "^conv2d_53/kernel/Assign"
  input: "^conv2d_54/kernel/Assign"
  input: "^conv2d_55/kernel/Assign"
  input: "^conv2d_56/kernel/Assign"
  input: "^conv2d_57/kernel/Assign"
  input: "^conv2d_58/kernel/Assign"
  input: "^conv2d_59/bias/Assign"
  input: "^conv2d_59/kernel/Assign"
  input: "^conv2d_6/kernel/Assign"
  input: "^conv2d_60/kernel/Assign"
  input: "^conv2d_61/kernel/Assign"
  input: "^conv2d_62/kernel/Assign"
  input: "^conv2d_63/kernel/Assign"
  input: "^conv2d_64/kernel/Assign"
  input: "^conv2d_65/kernel/Assign"
  input: "^conv2d_66/kernel/Assign"
  input: "^conv2d_67/bias/Assign"
  input: "^conv2d_67/kernel/Assign"
  input: "^conv2d_68/kernel/Assign"
  input: "^conv2d_69/kernel/Assign"
  input: "^conv2d_7/kernel/Assign"
  input: "^conv2d_70/kernel/Assign"
  input: "^conv2d_71/kernel/Assign"
  input: "^conv2d_72/kernel/Assign"
  input: "^conv2d_73/kernel/Assign"
  input: "^conv2d_74/kernel/Assign"
  input: "^conv2d_75/bias/Assign"
  input: "^conv2d_75/kernel/Assign"
  input: "^conv2d_8/kernel/Assign"
  input: "^conv2d_9/kernel/Assign"
}
node {
  name: "output_node0"
  op: "Identity"
  input: "conv2d_59/BiasAdd"
  attr {
    key: "T"
    value {
      type: DT_FLOAT
    }
  }
}
node {
  name: "output_node1"
  op: "Identity"
  input: "conv2d_67/BiasAdd"
  attr {
    key: "T"
    value {
      type: DT_FLOAT
    }
  }
}
node {
  name: "output_node2"
  op: "Identity"
  input: "conv2d_75/BiasAdd"
  attr {
    key: "T"
    value {
      type: DT_FLOAT
    }
  }
}
versions {
  producer: 26
}
